model.pth (torch, 54919 bytes, 9 tensors)

rnn.weight_ih_l0 f4 [64, 6]
-0.030954557 -1.0796671 -0.28016204 0.041975413 0.090677835 -0.718632 -0.07013617 -0.10236492
-0.4856132 0.30893984 0.19320959 -0.5556496 -0.02081931 0.7927219 0.2506736 -0.06518457
-0.14943087 -0.095002554 -0.028091466 -1.2763399 -0.43025175 0.29460344 0.27268657 -0.0049835914
0.20544761 -0.1524626 -0.40685108 -0.61818236 -0.5743798 -0.76773703 -0.054927025 -0.7100264
-0.12762214 0.43617925 -0.019470189 -0.07045579 -0.00033837586 0.8192718 0.7012594 0.081861325
-0.22303519 0.6130278 0.018212048 -0.9469334 -0.13684627 0.22836132 -0.07218734 0.1359303
0.03389951 -0.32496917 0.013362607 -0.03892711 -0.20614295 0.16912773 -0.004171466 -0.129641
-0.41355413 -0.02544214 0.24537393 -0.29092947 -0.08352572 -0.25574642 -0.23949577 -0.024262233
0.5144388 -0.4256988 -0.05663147 -0.3382679 0.39477262 0.21806405 -0.34742078 0.05553528
-0.06910963 0.23042463 0.26576188 -0.27272278 0.24353485 -0.023802774 -0.026692105 -0.12805405
0.17082472 0.02144315 -0.30478945 0.1620715 0.058857802 -0.4465281 -0.16417964 0.13525778
-0.21169697 0.13047175 -0.07817944 0.006618848 -0.015266642 0.5290119 -0.4247099 -0.0459597
-0.040186625 0.5415471 0.08023545 -0.16530801 0.14956701 -0.037873443 0.035307277 -0.33266315
0.28275675 -0.27002954 -0.017390527 0.15293558 0.020413673 -0.099377386 -0.27360526 0.024527507
-0.056731455 0.121108316 -0.117897175 -0.33161926 0.5046147 0.100736454 0.404695 -0.08270645
0.05294352 -0.5712453 0.4643173 0.16248953 -0.30272582 0.030281212 0.01062935 0.5661255
-0.07343856 0.15398231 -0.44981223 0.11562319 0.046879552 -0.3274412 0.010752839 0.052965406
-0.34595475 0.20545435 0.007912887 -0.36524752 0.2659374 0.15081854 -0.16511917 -0.014075766
-0.02221326 -0.46009314 -0.096573606 0.2970921 0.2973459 -0.30394843 -0.12119602 0.52245545
0.5003834 0.9184583 0.9238628 0.8688052 0.04589978 -0.35987246 -0.09939742 0.06683545
0.37062627 -0.2792345 0.06383733 -0.13679023 -0.25059524 -0.1388203 -0.045665458 0.1888376
-0.049458504 -0.6179936 -0.41691837 0.20598926 0.2978822 -0.07042866 0.049011525 -0.14811611
-0.23843604 -0.22518343 0.4885273 -0.13037038 0.029556833 0.82591134 0.14710696 -0.2644844
-0.2052913 0.06111424 -0.02229138 0.6996771 -0.30853117 -0.24626628 0.037376445 0.12729275
0.13481002 0.4142771 0.5673649 -0.26879394 -0.44021225 0.3534705 0.101871304 -0.60263
-0.29818535 -0.48305112 -0.7732551 -0.6415439 0.0064785234 -0.39008227 0.13786097 0.06439268
-0.07715972 0.009891093 0.0062147398 -0.098774195 0.2511587 -0.09600603 0.3065034 -0.18555237
0.015180361 0.53053474 -0.38567168 -0.1570877 0.31816757 -0.09690381 0.14769876 -0.8997336
-0.18526761 0.18378645 -0.19458818 0.21329704 -0.042268902 -0.04305382 -0.24218267 -0.12225389
0.5379782 -0.33419773 -0.008695363 0.6355309 -0.15164022 -0.35526454 0.11789108 0.15441273
0.024463685 0.3210374 -0.48007455 0.10483537 -0.15755641 0.051474776 0.10165885 -1.3013388
-0.40004477 -0.694464 -0.8137326 -0.9384516 -0.06413798 0.081815064 0.13477261 0.2206011
00000000: 6994 fdbc 8832 8abf 6671 8fbe 69ee 2b3d
00000010: 4db5 b93d 44f8 37bf 8da3 8fbd b3a4 d1bd
00000020: 4ba2 f8be 5d2d 9e3e bcd8 453e 0d3f 0ebf
00000030: 428d aabc d3ef 4a3f 4a58 803e 7d7f 85bd
00000040: 6804 19be b390 c2bd 1320 e6bc 1b5f a3bf
00000050: f549 dcbe 43d6 963e 939d 8b3e 654d a3bb
00000060: dc60 523e 281f 1cbe c94e d0be 3341 1ebf
00000070: 8e0a 13bf 6a8a 44bf 29fb 60bd 4ac4 35bf
00000080: 61af 02be e352 df3e f27f 9fbc 204b 90bd
00000090: 0a68 b1b9 ccbb 513f bc85 333f e9a6 a73d
000000a0: 5663 64be 64ef 1c3f 6f31 953c 3a6a 72bf
000000b0: 6e21 0cbe 8dd7 693e f5d6 93bd 5031 0b3e
000000c0: 36da 0a3d 5c62 a6be d6ee 5a3c 0972 1fbd
000000d0: 2317 53be d22f 2d3e cbb0 88bb 9cc0 04be
000000e0: 5ebd d3be 096c d0bc 4e43 7b3e b5f4 94be
000000f0: 880f abbd 32f1 82be 613e 75be 97c1 c6bc
00000100: 43b2 033f 31f5 d9be 66f6 67bd 7331 adbe
00000110: a31f ca3e 2f4c 5f3e 23e1 b1be f678 633d
00000120: 5a89 8dbd 6ff4 6b3e f111 883e 52a2 8bbe
00000130: 3361 793e 09fe c2bc 67a9 dabc 9a20 03be
00000140: adec 2e3e 8ba9 af3c 5d0d 9cbe 12f6 253e
00000150: e114 713d 559f e4be b51e 28be 0481 0a3e
00000160: 17c7 58be 639a 053e 8b1c a0bd ece2 d83b
00000170: f020 7abc 536d 073f 9373 d9be 3d40 3cbd
00000180: bb9a 24bd d5a2 0a3f 7c52 a43d 8146 29be
00000190: 1828 193e 2f21 1bbd 5d9e 103d d352 aabe
000001a0: 7ec5 903e 5041 8abe 9476 8ebc 259b 1c3e
000001b0: 933a a73c 5f86 cbbd fd15 8cbe e9ed c83c
000001c0: 3e5f 68bd a307 f83d 1374 f1bd 00ca a9be
000001d0: 6e2e 013f ea4e ce3d 2f34 cf3e 0062 a9bd
000001e0: 4edb 583d 223d 12bf ffba ed3e a863 263e
000001f0: e1fe 9abe 4e10 f83c ba26 2e3c 9aed 103f
00000200: f566 96bd 8aad 1d3e ca4d e6be dacb ec3d
00000210: c604 403d 5fa6 a7be ad2c 303c 41f2 583d
00000220: fb20 b1be a062 523e 0ea5 013c b901 bbbe
00000230: f228 883e 2d70 1a3e 0015 29be 0b9e 66bc
00000240: 95f8 b5bc 5491 ebbe 62c8 c5bd 751c 983e
00000250: b93d 983e 219f 9bbe 9e35 f8bd a4bf 053f
00000260: 2019 003f 1520 6b3f 4682 6c3f 056a 5e3f
00000270: 6801 3c3d 3441 b8be e090 cbbd 06e1 883d
00000280: bac2 bd3e d3f7 8ebe 25bd 823d bd12 0cbe
00000290: 054e 80be e926 0ebe b40b 3bbd a55e 413e
000002a0: 0095 4abd d434 1ebf 5376 d5be d9ee 523e
000002b0: 0484 983e e73c 90bd 4fc0 483d c0ab 17be
000002c0: 9428 74be 7c96 66be 4020 fa3e d07f 05be
000002d0: 2c21 f23c ed6e 533f 35a3 163e 806a 87be
000002e0: e237 52be ed52 7a3d 6a9c b6bc 0a1e 333f
000002f0: ccf7 9dbe 3a2d 7cbe 0b18 193d 0859 023e
00000300: a30b 0a3e 211c d43e d33e 113f 5c9f 89be
00000310: 8063 e1be 16fa b43e e7a1 d03d f645 1abf
00000320: c0ab 98be 7a52 f7be 0cf4 45bf 393c 24bf
00000330: cb49 d43b ddb8 c7be 6d2b 0d3e 4fe0 833d
00000340: ea05 9ebd 400e 223c 04a5 cb3b 204a cabd
00000350: e097 803e cf9e c4bd 03ee 9c3e 7101 3ebe
00000360: 0db7 783c 20d1 073f c276 c5be 99db 20be
00000370: dce6 a23e 8175 c6bd 583e 173e f154 66bf
00000380: cbb6 3dbe 8432 3c3e 2042 47be 8a6a 5a3e
00000390: 2822 2dbd 3459 30bd bcfe 77be 3f60 fabd
000003a0: f0b8 093f f71b abbe ff76 0ebc 27b2 223f
000003b0: 9347 1bbe 3ce5 b5be e170 f13d 5f1e 1e3e
000003c0: 1168 c83c 045f a43e 55cc f5be edb3 d63d
000003d0: 7856 21be 37d7 523d 8432 d03d 4592 a6bf
000003e0: abd2 ccbe 65c8 31bf c850 50bf 5d3e 70bf
000003f0: c65a 83bd a88e a73d d501 0a3e 41e5 613e

rnn.weight_hh_l0 f4 [64, 64]
-0.07314039 0.008200981 0.08844188 0.036536854 0.01839743 0.03309265 -0.037315264 -0.034508325
0.0055114543 0.07768446 0.05074036 0.14405672 -0.05679101 0.044526964 -0.1835785 0.058431894
-0.0088161705 -0.06848237 0.04407475 -0.13694455 -0.110820755 0.07904035 -0.07728588 -0.026927968
-0.009699434 -0.040066447 0.044361886 -0.08118172 0.010422018 -0.21696013 0.022212964 -0.027397966
-0.10869767 0.078351654 -0.041898616 0.058722313 -0.021772228 0.09453229 0.12196076 -0.16060236
0.025027044 0.144403 0.07656048 0.24389106 -0.09799717 0.14864735 -0.031207588 -0.122974135
-0.123658925 -0.011568136 -0.27719203 0.010942956 0.06377329 -0.202687 -0.13423605 -0.052480437
0.11215503 -0.10081679 0.04160974 0.1696087 -0.054334298 -0.080214925 -0.28399053 -0.051206395
0.22548927 0.09026514 -0.02002885 0.17033494 -0.12841457 0.17080373 -0.1136117 0.16912833
0.15082814 0.09187676 0.13071756 -0.12140188 0.07379638 0.030778717 -0.029852852 -0.11903954
0.038069654 0.16714305 -0.15809624 -0.2358471 0.006013613 -0.046038654 0.12778729 -0.15579371
0.14126374 0.007561252 -0.00037077433 0.0052889283 0.073725335 0.18509524 -0.14770298 0.13470471
-0.09332667 0.08510048 -0.05165992 -0.038601376 0.07437019 0.052522656 0.098428495 -0.06406246
0.13041507 -0.07983246 -0.08315646 -0.18285285 0.07930564 0.19107012 -0.039250996 0.002257072
-0.00016168709 0.019970724 0.02854938 0.09490407 -0.043852802 0.050582845 -0.16540578 0.0068110395
-0.041236397 0.015939401 0.04411634 -0.21313109 0.14015473 -0.04478179 0.030392658 -0.07887792
-0.054176893 -0.33570576 -0.48021573 0.24208513 0.030049758 0.022095408 0.00279937 0.20495369
-0.06421259 -0.07898012 0.22463904 0.24582916 -0.015336502 0.04490613 0.16377193 0.15678008
-0.21711977 0.21811648 0.12676229 -0.07413455 -0.45784625 0.22418745 0.14666665 -0.25592765
0.072210446 -0.07702306 0.16660562 0.023119235 0.0304466 -0.004427249 -0.13679345 0.34896845
-0.026619917 -0.015962532 0.037368465 -0.25423083 -0.28500438 -0.14304903 0.05949726 0.024233956
0.23017573 0.10674541 0.15625986 -0.13026738 -0.2295225 0.12445197 -0.2514496 -0.18825364
0.14556132 0.3252991 0.18417943 0.115552075 -0.042161066 -0.040523738 -0.0320073 0.042883642
0.09405419 -0.11973985 0.21114218 -0.06190429 -0.0055220155 -0.0012852115 0.021904828 -0.025002318
0.17530048 0.69875216 -0.018483477 0.09983567 0.098445125 0.14708714 -0.15307823 -0.1457203
0.010831309 0.15142949 0.6062372 -0.31875873 -0.0020481732 -0.28174663 0.022713104 -0.15494995
-0.033618964 -0.02542994 -0.14593849 -0.053565703 -0.20604515 -0.08846785 -0.13482548 -0.26399747
0.27955222 0.06609136 0.3088065 -0.09345065 0.2058279 0.5017535 -0.08548871 0.2883442
-0.6889781 0.04928155 -0.04582469 -0.09699509 0.37467125 0.07631247 0.6536742 -0.04315593
0.16056718 -0.029719157 -0.04303197 -0.04188846 0.24663253 0.100406304 0.19902071 0.18594265
-0.042508036 0.09771005 0.2892216 0.089022584 -0.06859536 -0.14024925 -0.050627638 -0.14658614
0.120644934 -0.45313016 -0.09729797 -0.5746704 0.18218014 -0.00027089933 -0.13158838 -0.29071206
00000000: a1ca 95bd 685d 063c 0421 b53d aba7 153d
00000010: 35b6 963c 298c 073d e4d7 18bd 9a58 0dbd
00000020: 6e99 b43b 0819 9f3d 20d5 4f3d 9b83 133e
00000030: b19d 68bd e861 363d 01fc 3bbe 4856 6f3d
00000040: b371 10bc 7c40 8cbd ba87 343d 313b 0cbe
00000050: fef5 e2bd e8df a13d 0f48 9ebd 0b98 dcbc
00000060: 60ea 1ebc b71c 24bd cfb4 353d 9a42 a6bd
00000070: 1dc1 2a3c cc2a 5ebe f6f7 b53c b371 e0bc
00000080: e29c debd d576 a03d e29d 2bbd cf86 703d
00000090: ac5b b2bc 259a c13d 90c6 f93d f274 24be
000000a0: 8405 cd3c 61de 133e becb 9c3d 94be 793e
000000b0: beb2 c8bd 0337 183e 0ea7 ffbc ddd9 fbbd
000000c0: e440 fdbd 4788 3dbc 1dec 8dbe 164a 333c
000000d0: 929b 823d 2e8d 4fbe 2d75 09be baf5 56bd
000000e0: 89b1 e53d 0879 cebd fa6e 2a3d e7ad 2d3e
000000f0: a48d 5ebd b947 a4bd 3567 91be ccbd 51bd
00000100: a9e6 663e eedc b83d 8b13 a4bc 486c 2e3e
00000110: 1c7f 03be 2ce7 2e3e 40ad e8bd fa2f 2d3e
00000120: b172 1a3e e229 bc3d d3da 053e 8da1 f8bd
00000130: 8e22 973d a623 fc3c f88d f4bc 01cb f3bd
00000140: edee 1b3d 8c27 2b3e fbe3 21be e781 71be
00000150: d80d c53b 0793 3cbd acda 023e 6388 1fbe
00000160: 71a7 103e 61c4 f73b 7d64 c2b9 bf4e ad3b
00000170: 4ffd 963d 9b89 3d3e 733f 17be 08f0 093e
00000180: 0e22 bfbd 2949 ae3d 5a99 53bd 7a1c 1ebd
00000190: 664f 983d ff21 573d e194 c93d 2e33 83bd
000001a0: 878b 053e 337f a3bd ef4d aabd c73d 3bbe
000001b0: ff6a a23d e3a7 433e a7c5 20bd 62eb 133b
000001c0: 8c8a 29b9 a599 a33c 64e0 e93c 115d c23d
000001d0: ff9e 33bd f52f 4f3d 2260 29be 242f df3b
000001e0: 7fe7 28bd 5993 823c 56b3 343d 093f 5abe
000001f0: b984 0f3e 1c6d 37bd 06fa f83c bf8a a1bd
00000200: 97e8 5dbd a0e1 abbe d6de f5be 2ae5 773e
00000210: e92a f63c 6e01 b53c a375 373b 61df 513e
00000220: e481 83bd 54c0 a1bd c707 663e a4ba 7b3e
00000230: f445 7bbc 7def 373d d4b3 273e f58a 203e
00000240: a554 5ebe ed59 5f3e f9cd 013e dbd3 97bd
00000250: d36a eabe 6591 653e c82f 163e f308 83be
00000260: 12e3 933d 44be 9dbd aa9a 2a3e 8d64 bd3c
00000270: 266b f93c 7512 91bb 9513 0cbe feab b23e
00000280: 0312 dabc dbc3 82bc ad0f 193d 8b2a 82be
00000290: 18ec 91be 727b 12be 66b3 733d 4a86 c63c
000002a0: 30b3 6b3e 569d da3d 9602 203e d064 05be
000002b0: f207 6bbe ade0 fe3d 01be 80be 90c5 40be
000002c0: 070e 153e 9b8d a63e 8899 3c3e 91a6 ec3d
000002d0: 15b1 2cbd 38fc 25bd 161a 03bd c2a6 2f3d
000002e0: 7c9f c03d 2b3a f5bd a835 583e 5a8f 7dbd
000002f0: 06f2 b4bb 8b74 a8ba c171 b33c a9d1 ccbc
00000300: f881 333e 6ce1 323f a96a 97bc a576 cc3d
00000310: 999d c93d 039e 163e 8ac0 1cbe b437 15be
00000320: cd75 313c 5510 1b3e 5c32 1b3f 5834 a3be
00000330: a53a 06bb 1841 90be d510 ba3c 33ab 1ebe
00000340: 0ab4 09bd 7352 d0bc e670 15be b667 5bbd
00000350: 80fd 52be a22e b5bd b10f 0abe ad2a 87be
00000360: 7821 8f3e e85a 873d e31b 9e3e 0e63 bfbd
00000370: 8dc4 523e eb72 003f b414 afbd daa1 933e
00000380: de60 30bf 73db 493d acb2 3bbd 5da5 c6bd
00000390: e9d4 bf3e b649 9c3d 3157 273f 46c4 30bd
000003a0: b96b 243e 9775 f3bc 4a42 30bd 3c93 2bbd
000003b0: 3d8d 7c3e d2a1 cd3d 16cc 4b3e c067 3e3e
000003c0: e81c 2ebd 351c c83d db14 943e 7951 b63d
000003d0: b97b 8cbd 809d 0fbe ed5e 4fbd ad1a 16be
000003e0: b114 f73d ad00 e8be 2844 c7bd 991d 13bf
000003f0: 6e8d 3a3e 7e07 8eb9 1bbf 06be 36d8 94be

rnn.bias_ih_l0 f4 [64]
0.18449895 0.041915618 -0.02138239 -0.022069843 0.12499955 -0.0007617917 -0.0051959204 0.09285749
-0.09537034 -0.028839253 0.023508709 0.027618665 -0.019232972 0.023252286 -0.058196947 0.08971764
-0.008934811 0.03385299 0.011736905 -0.021838754 -0.007288985 -0.053554412 0.0029443111 -0.00534552
0.06563251 -0.21938857 -0.06360496 0.036748923 -0.039285436 0.05040997 -0.06577269 -0.031440176
-0.024118168 0.127244 -0.015837567 -0.03375251 -0.026578726 -0.040174413 0.0116098095 -0.0027432307
-0.06981294 0.2067583 -0.009186765 0.042398732 -0.041467667 -0.027681364 -0.0014911519 0.04528828
0.09166403 1.5222497e-05 0.056726426 -0.07449791 -0.07746493 0.044263598 -0.08906967 -0.0576816
0.06192565 -0.009213234 -0.040838443 -0.01578036 0.05132497 0.10608569 0.027831797 0.012800299
00000000: 4bed 3c3e b6af 2b3d 1f2a afbc d1cb b4bc
00000010: c4ff ff3d fab2 47ba 8a42 aabb 112c be3d
00000020: 8651 c3bd 4c40 ecbc 5695 c03c 8a40 e23c
00000030: 778e 9dbc 947b be3c ec5f 6ebd e2bd b73d
00000040: 5063 12bc 6fa9 0a3d 264c 403c 30e7 b2bc
00000050: 70d8 eebb df5b 5bbd 58f5 403b 7929 afbb
00000060: 566a 863d 66a7 60be 5143 82bd 0a86 163d
00000070: c4e9 20bd af7a 4e3d d5b3 86bd 6ac7 00bd
00000080: 7793 c5bc 404c 023e c9bd 81bc 1240 0abd
00000090: a1bb d9bc ed8d 24bd 1237 3e3c c6c7 33bb
000000a0: 16fa 8ebd 73b8 533e 1684 16bc 4baa 2d3d
000000b0: 00da 29bd 07c4 e2bc c172 c3ba 3480 393d
000000c0: 5aba bb3d 2064 7f37 f859 683d 5c92 98bd
000000d0: efa5 9ebd bf4d 353d 296a b6bd 8b43 6cbd
000000e0: c0a5 7d3d 1bf3 16bc 3646 27bd d045 81bc
000000f0: 223a 523d 7443 d93d 82ff e33c 58b8 513c

rnn.bias_hh_l0 f4 [64]
-0.031905856 0.04034809 0.014072096 0.041409407 0.1321142 0.012088122 -0.14846027 -0.09452648
0.105078734 0.08057038 0.04200595 -0.034494605 0.014969962 -0.02646699 0.056200597 -0.07851666
0.006845601 -0.0398241 -0.009804757 -0.0031255537 -0.0068844683 0.04381695 -0.0059737707 0.0038258843
-0.047313917 -0.1455623 0.073742576 -0.0317463 0.066969514 -0.041680854 0.054652847 0.030192241
-0.037886053 0.14995183 0.014689669 0.034103155 0.036467493 0.011688678 0.02891406 -0.0017051878
0.07441061 0.14450467 0.007940148 -0.045778528 0.03581859 0.052946918 0.0026093258 -0.041824613
-0.09176173 0.02060054 -0.064543754 -0.30648515 0.07595095 -0.052678037 -0.124417804 -0.05358924
-0.054229934 -0.023785543 0.044030204 0.0017305396 -0.026266646 0.21719518 -0.012036263 -0.02629292
00000000: b7af 02bd 0a44 253d a68e 663c e99c 293d
00000010: f248 073e 420d 463c f805 18be 1997 c1bd
00000020: 8533 d73d 1502 a53d 6e0e 2c3d 374a 0dbd
00000030: 9244 753c 4dd1 d8bc 9932 663d 58cd a0bd
00000040: 1051 e03b 981e 23bd 22a4 20bc 17d6 4cbb
00000050: 1b97 e1bb 6779 333d 9fbf c3bb b0bb 7a3b
00000060: 3dcc 41bd 490e 15be 5906 973d 6908 02bd
00000070: 5027 893d 8bb9 2abd aadb 5f3d b855 f73c
00000080: 682e 1bbd f98c 193e f0ac 703c c0af 0b3d
00000090: f05e 153d de81 3f3c 2edd ec3c 9c80 dfba
000000a0: 9764 983d 08f9 133e 6517 023c 4482 3bbd
000000b0: 84b6 123d dede 583d 3901 2b3b 4950 2bbd
000000c0: 93ed bbbd 77c2 a83c 842f 84bd 9feb 9cbe
000000d0: 2c8c 9b3d edc4 57bd c3ce febd 6480 5bbd
000000e0: 3520 5ebd e6d9 c2bc 0459 343d 46d3 e23a
000000f0: 262d d7bc 6a68 5e3e bf33 45bc 4064 d7bc

rnn.weight_ih_l1 f4 [64, 64]
0.1738302 -0.13956891 -0.025474813 0.017295316 0.022462843 0.0023677312 -0.12653612 0.0024780214
-0.102520816 0.016215421 0.08566896 0.17579417 -0.0765715 -0.011958653 -0.13682555 0.0049401163
0.05405882 0.13786331 -0.15224761 -0.045624677 0.13761494 -0.15110494 0.04206867 0.059440196
0.013851431 -0.06157282 0.09164383 -0.054362185 -0.05093288 0.05691851 -0.05049644 0.08734041
-0.08323163 -0.042463504 -0.11500724 0.12254159 -0.061009265 -0.03207694 0.036928136 -0.066745706
-0.19913152 0.00014457188 0.105525374 -0.043679636 -0.013107811 -0.1054035 -0.10495418 -0.103162535
0.0307074 0.17662276 0.19331896 0.011330589 -0.046614066 -0.0435073 0.18259116 -0.18333124
-0.1335923 0.16597195 0.14526325 0.08141837 0.07955949 0.060567122 0.04186867 -0.075731024
0.090557344 0.13540134 0.1100977 0.011382813 -0.004039729 0.05265102 0.066994146 -0.02775674
0.07654118 -0.09129231 0.0321391 -0.08054832 0.007932205 0.0051572165 -0.032286286 -0.065866105
0.009572958 0.0034724227 -0.11926101 0.07007403 0.03361725 -0.0058804904 -0.0568394 0.069985606
0.028313356 -0.079690576 0.0075132977 0.090671666 -0.18535823 0.06453497 -0.01868772 -0.01988202
-0.0905173 0.045992702 -0.08959707 -0.12616079 -0.12561972 0.1667376 -0.050375644 0.015144362
0.11055632 -0.021332836 -0.13678598 0.08373753 0.050030332 0.04874816 0.12642366 0.11275162
0.08843384 -0.069386736 -0.04371369 -0.008761457 0.085384056 -0.058183618 0.05475488 -0.05575165
-0.07458262 0.07281321 0.029082999 0.06311755 -0.094108135 -0.059871763 -0.07005994 -0.0897075
0.3661319 0.19584401 0.009971296 0.45474437 -0.024941973 -0.17185661 -0.2384606 0.22785433
0.027893797 0.34274134 0.07048056 0.026106542 -0.018429706 -0.29974604 -0.048685085 -0.037561513
0.007638112 0.010128003 0.010312487 0.06463593 -0.012166334 -0.105207786 -0.06233015 0.056158666
-0.18112043 0.25705966 0.2888705 -0.043634035 -0.2329769 0.044701096 0.2040031 -0.67168486
0.300327 0.08662143 0.03609236 0.04568598 -0.022594655 0.0990597 0.2629029 -0.03031873
-0.042541515 -0.0871267 0.05068045 -0.09756014 -0.19313014 -0.40433177 -0.3168591 -0.11426962
0.2719542 -0.006024743 -0.15993734 0.050883807 -0.166225 -0.15421595 0.24767892 -0.13662764
-0.05201212 0.34229916 -0.021102969 -0.21543407 -0.34396523 0.2538331 0.096502826 -0.22174834
-0.08564817 0.060217652 0.086142406 0.1483902 -0.008967457 -0.04208256 -0.1393052 0.11625011
0.09068188 -0.08347647 0.016579377 0.15681067 -0.013466817 0.004388856 -0.18423958 -0.14323835
0.050830156 0.072580464 -0.16571668 0.011440058 0.03293027 0.089911945 -0.0644572 0.063062295
-0.008234039 0.062429138 0.024324924 -0.026531 -0.011310658 -0.12760733 0.045196895 0.17876764
-0.11477241 0.14388698 0.15867497 0.10413064 -0.03332899 0.09971095 0.056479428 -0.16325888
-0.034787405 0.07319039 -0.03264019 -0.100517765 0.029500596 -0.047408324 0.08285815 -0.039715834
0.044456325 0.07129776 -0.0456276 0.012655375 0.19414434 0.090304546 0.10273895 -0.080847256
-0.005222144 0.1533311 -0.052505925 -0.11717008 0.06731017 -0.00021757017 0.024497636 0.05602231
00000000: 8b00 323e 27eb 0ebe 8eb0 d0bc e8ae 8d3c
00000010: ff03 b83c f02b 1b3b af92 01be 4d66 223b
00000020: 6ff6 d1bd 34d6 843c 3573 af3d 6303 343e
00000030: 85d1 9cbd 3aee 43bc ff1b 0cbe b3e0 a13b
00000040: c86c 5d3d 0a2c 0d3e cce6 1bbe f1e0 3abd
00000050: eeea 0c3e 41bb 1abe 3350 2c3d 9077 733d
00000060: 1df1 623c c833 7cbd c3af bb3d e2aa 5ebd
00000070: ff9e 50bd 6223 693d 5bd5 4ebd 87df b23d
00000080: 5875 aabd 36ee 2dbd ea88 ebbd 16f7 fa3d
00000090: dae4 79bd 1c63 03bd f541 173d f9b1 88bd
000000a0: 22e9 4bbe 3898 1739 b01d d83d 6be9 32bd
000000b0: 25c2 56bc cadd d7bd 38f2 d6bd e146 d3bd
000000c0: 168e fb3c 99dc 343e 68f5 453e efa3 393c
000000d0: 64ee 3ebd b634 32bd 2df9 3a3e 2fbb 3bbe
000000e0: 6bcc 08be 8df4 293e e4bf 143e adbe a63d
000000f0: 16f0 a23d 3b15 783d 7c7e 2b3d de18 9bbd
00000100: 2176 b93d a6a6 0a3e e77a e13d fa7e 3a3c
00000110: b45f 84bb 99a8 573d 3a34 893d 1a62 e3bc
00000120: 9fc1 9c3d 76f7 babd 4aa4 033d 85f6 a4bd
00000130: 14f6 013c defd a83b a03e 04bd cfe4 86bd
00000140: e5d7 1c3c 9691 633b 1e3f f4bd f982 8f3d
00000150: 3eb2 093d 21b1 c0bb 6ed0 68bd 9d54 8f3d
00000160: 69f1 e73c d034 a3bd 1c32 f63b 11b2 b93d
00000170: 8cce 3dbe e92a 843d fd16 99bc 9edf a2bc
00000180: 2261 b9bd d862 3c3d ab7e b7bd 4b30 01be
00000190: 75a2 00be 43bd 2a3e b156 4ebd 0f20 783c
000001a0: 5a6b e23d 33c2 aebc a011 0cbe 957e ab3d
000001b0: 9bec 4c3d 27ac 473d 3475 013e 52ea e63d
000001c0: cd1c b53d a21a 8ebd 200d 33bd 378c 0fbc
000001d0: d6dd ae3d f251 6ebd a746 603d d85b 64bd
000001e0: c6be 98bd 181f 953d 783f ee3c c643 813d
000001f0: c4bb c0bd 183c 75bd 967b 8fbd 91b8 b7bd
00000200: a475 bb3e 558b 483e a65e 233c 41d4 e83e
00000210: 1c53 ccbc 2efb 2fbe 042f 74be a552 693e
00000220: 8881 e43c cb7b af3e 1d58 903d 63dd d53c
00000230: e5f9 96bc 5078 99be 036a 47bd 1ada 19bd
00000240: 2149 fa3b ecef 253c b5f5 283c d85f 843d
00000250: 4e55 47bc 2e77 d7bd e64d 7fbd a106 663d
00000260: a277 39be 539d 833e d6e6 933e 9ab9 32bd
00000270: 7f91 6ebe 7f18 373d 30e6 503e 8af3 2bbf
00000280: 76c4 993e 9466 b13d 95d5 133d 3921 3b3d
00000290: 6d18 b9bc d0df ca3d 359b 863e fc5e f8bc
000002a0: 0340 2ebd 7c6f b2bd 4e96 4f3d 9ccd c7bd
000002b0: e8c3 45be 9304 cfbe 5b3b a2be 3106 eabd
000002c0: 953d 8b3e 356b c5bb 9dc6 23be 8a6b 503d
000002d0: e336 2abe c9ea 1dbe 8b9f 7d3e 1ee8 0bbe
000002e0: a90a 55bd d641 af3e 22e0 acbc c09a 5cbe
000002f0: 361c b0be 69f6 813e 46a3 c53d ff11 63be
00000300: 4f68 afbd c9a6 763d 6e6b b03d 9af3 173e
00000310: 3eec 12bc c35e 2cbd 06a6 0ebe 8a14 ee3d
00000320: 6cb7 b93d b6f5 aabd 79d1 873c fa92 203e
00000330: eda3 5cbc 64d0 8f3b 4da9 3cbe 13ad 12be
00000340: 4833 503d 11a5 943d a2b1 29be 156f 3b3c
00000350: e4e1 063d c123 b83d 2302 84bd ce26 813d
00000360: 10e8 06bc b2b5 7f3d 1045 c73c 8a57 d9bc
00000370: 5750 39bc 7fab 02be 6120 393d dd0e 373e
00000380: cc0d ebbd 1c57 133e b17b 223e 7242 d53d
00000390: fb83 08bd 4135 cc3d f956 673d 562d 27be
000003a0: 3d7d 0ebd d8e4 953d b8b1 05bd 42dc cdbd
000003b0: 3cab f13c 3b2f 42bd 89b1 a93d 12ad 22bd
000003c0: d617 363d 8f04 923d 02e4 3abd 7d58 4f3c
000003d0: c6cd 463e 97f1 b83d cc68 d23d 3f93 a5bd
000003e0: 851e abbb d402 1d3e 7410 57bd def6 efbd
000003f0: ead9 893d 8c23 64b9 44af c83c a677 653d

rnn.weight_hh_l1 f4 [64, 64]
-0.407253 -0.048450682 0.21584864 0.026786389 -0.24167664 -0.072722994 0.21416898 -0.038313705
-0.13951126 0.05455856 -0.05671251 -0.007017864 0.08106564 -0.09233098 -0.04220055 0.20722058
0.07721595 0.019611284 -0.13424581 -0.013907638 0.02393462 0.089913726 0.09507837 -0.04639398
-0.12131159 0.027090592 -0.088010244 -0.005783881 -0.067632735 -0.18128918 0.09101514 0.20811382
0.018553289 -0.17624736 -0.002406301 0.012908102 0.102690324 -0.064410456 0.008644295 0.057845708
-0.008128648 0.017685616 0.051906433 0.19579287 -0.10841109 -0.043113623 0.0062228185 -0.058976296
-0.06328545 -0.06559778 0.14562139 -0.17234035 0.014093302 0.29325616 -0.047770727 0.047975983
-0.1056011 -0.15684062 0.08192268 -0.21237938 -0.15087762 -0.07466102 0.10085472 -0.15613882
0.010447407 -0.46585363 0.036947943 0.01862624 -0.021515774 0.20681466 0.14841339 0.09044169
-0.027240552 -0.08754134 -0.10717273 -0.1386322 -0.03426249 -0.057968527 0.21853249 0.0030361034
-0.09105887 0.02132898 -0.039267838 0.05616178 -0.014460751 0.046923373 -0.13047531 0.087595165
-0.2702923 0.06055867 0.13243629 4.619852e-05 0.048984826 -0.081501834 0.1181478 0.0016966717
0.10451095 -0.023894278 -0.11920392 0.024278127 0.012906976 0.118791 0.037230644 -0.106684215
0.00808566 -0.04186046 0.075252324 0.049886774 0.00057097967 0.06994632 -0.045144584 0.012138221
0.08626502 0.28788948 -0.023276156 0.05906525 0.16688856 0.23063089 0.046220925 -0.007981279
-0.17173986 0.26795945 -0.045107536 0.052298803 -0.0575632 -0.024787052 0.1274909 -0.0065924046
0.30232334 0.08486178 0.15710665 0.32403687 0.31889153 0.020645473 -0.024179365 -0.083988674
0.039743062 -0.005422097 0.3577875 0.33703607 -0.2651583 0.17361026 0.24428476 0.64513737
0.016853718 0.27565792 0.19886409 0.3847917 -0.23274149 0.37922892 0.14986351 -0.11429399
0.26241294 0.08859085 -0.4377404 -0.4037427 0.108296946 -0.10778332 0.25266898 -0.14978866
-0.12518305 0.53452677 0.505787 -0.32088807 0.011993807 0.2717213 0.059510894 0.0691337
-0.07903155 -0.11903169 -0.26862547 -0.18377551 -0.13676974 -0.15441774 0.091352426 -0.08487926
0.22082362 -0.16279073 -0.49861592 -0.09464861 -0.09247443 -0.15993595 -0.086431056 0.10751205
0.03762655 0.1999444 0.300099 -0.1265164 -0.10136764 -0.091617666 0.29127112 -0.10677312
0.12786786 -0.089806326 0.029281653 -0.19720769 -0.14499803 0.107568435 -0.015564696 -0.0040226895
0.14981425 -0.042080835 0.053912695 0.06580266 0.12164214 -0.011106016 0.055057365 0.21504055
0.12985112 0.14593084 0.06255571 -0.09134806 0.017469767 0.043435715 -0.050881345 -0.023877444
-0.1020439 0.059705526 0.06374023 0.041314796 -0.070917465 0.11305204 -0.018433416 0.061452035
0.01632095 -0.09821308 0.00865397 0.050764777 0.058326207 -0.023215331 -0.10243901 0.20477015
-0.023824966 -0.01608575 0.09230469 -0.08192026 -0.041236516 0.010525695 0.06327019 -0.09203207
0.004650162 0.096501514 0.092677526 0.18097083 -0.030092208 0.24472164 0.12955086 0.0029440033
0.039268374 0.0037064634 0.032532677 0.1511043 -0.12046847 0.040013343 0.02248447 -0.07901901
00000000: 7783 d0be 3974 46bd 6d07 5d3e 216f db3c
00000010: 157a 77be cbef 94bd 1d4f 5b3e d5ee 1cbd
00000020: 0adc 0ebe cc78 5f3d 604b 68bd 1cf6 e5bb
00000030: be05 a63d 0618 bdbd 7cda 2cbd a231 543e
00000040: 6523 9e3d d8a7 a03c bc77 09be dddc 63bc
00000050: 8912 c43c b024 b83d 73b8 c23d 9d07 3ebd
00000060: 3672 f8bd 17ed dd3c b73e b4bd b686 bdbb
00000070: 0883 8abd dfa3 39be 2566 ba3d ca1b 553e
00000080: 11fd 973c 307a 34be 08b3 1dbb 817c 533c
00000090: 4e4f d23d a1e9 83bd cda0 0d3c 9fef 6c3d
000000a0: 052e 05bc 6de1 903c d79b 543d ed7d 483e
000000b0: a206 debd e997 30bd c9e8 cb3b 2191 71bd
000000c0: cd9b 81bd 2158 86bd c61d 153e fd79 30be
000000d0: 98e7 663c ac25 963e 3dab 43bd 7782 443d
000000e0: 6445 d8bd d49a 20be 14c7 a73d fb79 59be
000000f0: aa7f 1abe e0e7 98bd eb8c ce3d dbe2 1fbe
00000100: 9a2b 2b3c 5e84 eebe ba56 173d 0e96 983c
00000110: d941 b0bc 39c7 533e aef9 173e 7e39 b93d
00000120: 9427 dfbc e048 b3bd 607d dbbd 99f5 0dbe
00000130: d356 0cbd 6870 6dbd fbc6 5f3e 5df9 463b
00000140: 137d babd 1dba ae3c 50d7 20bd e509 663d
00000150: c9ec 6cbc b932 403d 529b 05be 1865 b33d
00000160: c163 8abe 5e0c 783d 619d 073e 48c5 4138
00000170: 50a4 483d 6fea a6bd 79f7 f13d db62 de3a
00000180: d609 d63d efbd c3bc 2f21 f4bd ece2 c63c
00000190: c877 533c b248 f33d 297f 183d 417d dabd
000001a0: b779 043c e075 2bbd e41d 9a3d 1356 4c3d
000001b0: ccad 153a 0440 8f3d 87e9 38bd 64df 463c
000001c0: b7ab b03d 4066 933e a3ad bebc 67ee 713d
000001d0: d6e4 2a3e 812a 6c3e 2752 3d3d e9c3 02bc
000001e0: 93dc 2fbe fb31 893e aec2 38bd 4537 563d
000001f0: 64c7 6bbd 370e cbbc f98c 023e 1905 d8bb
00000200: 20ca 9a3e 03cc ad3d 91e0 203e 29e8 a53e
00000210: c045 a33e b220 a93c ce13 c6bc 4102 acbd
00000220: 9fc9 223d d9ab b1bb ec2f b73e fe8f ac3e
00000230: d4c2 87be e3c6 313e c925 7a3e b927 253f
00000240: cf10 8a3c 0923 8d3e 07a3 4b3e 6b03 c53e
00000250: c953 6ebe 4b2a c23e d275 193e f812 eabd
00000260: fd5a 863e 1f6f b53d 821f e0be 5db7 cebe
00000270: caca dd3d 80bd dcbd d45d 813e 3362 19be
00000280: fc2f 00be bfd6 083f 427b 013f 714b a4be
00000290: ac81 443c 0e1f 8b3e b2c1 733d f895 8d3d
000002a0: 4bdb a1bd e3c6 f3bd 4789 89be a62f 3cbe
000002b0: 5e0d 0cbe af1f 1ebe fb16 bb3d 2dd5 adbd
000002c0: 961f 623e 9db2 26be 964a ffbe 21d7 c1bd
000002d0: 3c63 bdbd 40c6 23be c402 b1bd 472f dc3d
000002e0: 4c1e 1a3d 3abe 4c3e 93a6 993e 848d 01be
000002f0: d699 cfbd 0ba2 bbbd 7d21 953e deab dabd
00000300: cbef 023e 61ec b7bd 14e0 ef3c d0f0 49be
00000310: 5d7a 14be d74c dc3d 1103 7fbc c4d0 83bb
00000320: e868 193e f45c 2cbd 8fd3 5c3d 8cc3 863d
00000330: 841f f93d 02f6 35bc d583 613d 9733 5c3e
00000340: b1f7 043e e56e 153e 351d 803d b114 bbbd
00000350: c21c 8f3c a6e9 313d f568 50bd a19a c3bc
00000360: 64fc d0bd c88d 743d 3d8a 823d b439 293d
00000370: 2d3d 91bd d487 e73d ad01 97bc 21b5 7b3d
00000380: 83b3 853c f023 c9bd 62c9 0d3c baee 4f3d
00000390: 76e7 6e3d 142e bebc 8bcb d1bd 44af 513e
000003a0: 932c c3bc 43c6 83bc 3e0a bd3d cfc5 a7bd
000003b0: 9fe7 28bd f773 2c3c cd93 813d 4f7b bcbd
000003c0: 6360 983b 96a2 c53d b7cd bd3d 6b50 393e
000003d0: ef83 f6bc 4f98 7a3e fba8 043e 2ef0 403b
000003e0: e0d7 203d 23e8 723b fc40 053d 16bb 1a3e
000003f0: 2cb8 f6bd 08e5 233d 5a31 b83c b8d4 a1bd

rnn.bias_ih_l1 f4 [64]
-0.06740333 0.030864779 0.016146468 0.0599136 -0.0541621 0.010951356 0.03205857 0.05501061
-0.011823821 -0.021023808 -0.07611506 0.022841016 0.042910583 0.06328983 -0.019492012 -0.17076866
-0.04360683 -0.11898774 -0.06889957 -0.6418106 0.4286305 0.019649329 -0.034573283 0.0114939865
0.08436509 -0.05953991 0.20430432 0.49308237 0.044784363 -0.044461202 -0.33871558 -0.03332677
0.032513484 -0.48654664 -0.05688187 -0.053464785 0.019635746 0.011797111 0.019816158 -0.5564095
-0.1909685 -0.060526777 0.06390482 0.08223988 -0.023465445 0.0068351943 0.012233553 0.076562986
0.05932403 0.04345158 0.080901094 0.009222192 0.023092367 0.00041021995 -0.08424613 -0.113528475
-0.0252055 -0.12200014 -0.33907935 0.054928113 -0.015066537 -0.0231534 0.052022777 -0.018414583
00000000: c20a 8abd 22d8 fc3c 9945 843c f767 753d
00000010: 14d9 5dbd 516d 333c d94f 033d ce52 613d
00000020: b3b8 41bc 1f3a acbc 36e2 9bbd 151d bb3c
00000030: 02c3 2f3d 199e 813d b6ad 9fbc fbdd 2ebe
00000040: 139d 32bd d8af f3bd 381b 8dbd b34d 24bf
00000050: 7575 db3e a1f7 a03c b79c 0dbd 4651 3c3c
00000060: 9bc7 ac3d 1fe0 73bd 2735 513e 4b75 fc3e
00000070: cf6f 373d f31c 36bd 216c adbe a781 08bd
00000080: dc2c 053d a41c f9be f7fc 68bd e4fd 5abd
00000090: 25db a03c ab48 413c 7f55 a23c da70 0ebf
000000a0: 3f8d 43be edea 77bd 88e0 823d 626d a83d
000000b0: 9b3a c0bc c4f9 df3b 3e6f 483c 0ecd 9c3d
000000c0: c1fd 723d 49fa 313d 79af a53d ad18 173c
000000d0: 342c bd3c ca12 d739 3c89 acbd 9e81 e8bd
000000e0: c47b cebc 36db f9bd cf9b adbe 4dfc 603d
000000f0: a3d9 76bc 33ac bdbc d615 553d 2eda 96bc

rnn.bias_hh_l1 f4 [64]
0.00977402 -0.04502803 -0.083962075 -0.08194788 -0.034208238 -0.04637355 0.0033525631 -0.016284568
-0.08412415 0.03103003 0.050494723 -0.09911655 0.028662074 -0.08220062 -0.015728375 -0.0037277155
0.038395207 0.050552033 0.05526361 -0.76133907 0.47436962 0.0041808896 0.024677591 -0.05213142
-0.121822596 0.052124925 0.17617883 0.54112303 -0.074083865 0.030469375 -0.37681273 0.083304435
0.07224067 -0.59216684 4.5460532e-05 0.14483957 -0.09321453 -0.14412926 0.021324277 -0.57114446
-0.1383049 0.06976566 0.1606268 0.055314854 -0.0076908516 -0.014607338 -0.01055725 0.0072237523
-0.10618724 -0.010045367 0.030037208 0.006471608 -0.024166228 0.01873217 0.03698386 0.028330868
-0.0014507619 0.059079945 -0.27600038 -0.0064636236 -0.059330814 0.060091503 -0.13804932 0.016242925
00000000: 3623 203c 506f 38bd 4ff4 abbd 4ad4 a7bd
00000010: f01d 0cbd 31f2 3dbd adb6 5b3b 3767 85bc
00000020: 4849 acbd b132 fe3c 8ed3 4e3d 9efd cabd
00000030: bacc ea3c cc58 a8bd cbd8 80bc b04c 74bb
00000040: 4b44 1d3d a60f 4f3d 185c 623d 1ee7 42bf
00000050: 93e0 f23e d8ff 883b a928 ca3c c187 55bd
00000060: 207e f9bd f280 553d 3968 343e 0a87 0a3f
00000070: 48b9 97bd e99a f93c 99ed c0be 849b aa3d
00000080: ebf2 933d 3f98 17bf e0ac 3e38 d350 143e
00000090: 42e7 bebd 9f96 13be 40b0 ae3c 8636 12bf
000000a0: cd9f 0dbe 4ce1 8e3d 5a7b 243e d491 623d
000000b0: 8a03 fcbb 9e53 6fbc 51f8 2cbc 3ab5 ec3b
000000c0: b278 d9bd 5395 24bc 9710 f63c c80f d43b
000000d0: 41f8 c5bc 3574 993c 637c 173d 2316 e83c
000000e0: 7e27 beba d0fd 713d ec4f 8dbe cecc d3bb
000000f0: de04 73bd 8222 763d cd5c 0dbe e20f 853c

fc.0.weight f4 [1, 128]
0.016114464 0.0024895207 0.076257825 0.0025200625 0.0932025 -0.035549056 -0.018949734 -0.14548385
-0.003844998 -0.012119966 0.029105779 0.13357136 -0.02560158 0.051651992 0.131326 -0.040740848
0.003280858 0.17903854 -0.003668831 -0.0030596815 0.05294472 0.30127934 0.016424874 -0.011318188
0.013398279 0.02563209 0.06151293 -0.019590842 -0.002595713 -0.0010385619 0.19706675 -0.01377981
-0.023000693 0.023125082 -0.0056354026 -0.009001368 -0.01574965 0.13280126 0.17572978 0.015698418
0.06051809 -0.04914652 -0.15584451 -0.15079416 -0.012536524 0.13165613 0.20517567 0.01945251
0.12832771 -0.03340481 0.08436266 -0.02380789 0.023175467 -0.019326992 -0.13814981 0.024070516
0.014028729 0.04787075 0.16163877 -0.105991475 -0.03106109 -0.06802327 0.17970069 -0.06524875
0.0039687282 0.0061763087 0.047373958 0.0047212066 0.063705765 0.14759946 -0.12974778 -0.0019010553
0.1406691 0.0053161113 -0.13972737 0.0043627294 -0.10755863 0.0014582078 0.003639433 0.03405333
0.002257769 0.0052597155 0.0012938613 -0.34994507 -0.17424147 0.0058166347 0.097810924 -0.0063403742
0.0005729094 0.0026671402 -0.13157555 0.14835384 -0.00628628 0.0029826353 0.3574746 -0.12827082
-0.12098798 -0.10383561 0.0035498964 -0.12300911 0.11771939 0.32349014 0.00018734061 0.2534402
0.23007639 0.0017535645 -0.2870976 -0.29198194 -0.0040360685 0.0012995304 0.20449874 -0.10471149
0.1418732 0.002916367 -0.11740378 -0.0016413489 0.0015875432 0.0024945969 9.659547e-06 0.11308348
-0.0023414725 -0.00055094773 0.39282066 -0.09260854 0.13111156 -0.0007189151 0.05695459 0.14415875
00000000: 7b02 843c 3a27 233b 102d 9c3d a227 253b
00000010: f4e0 be3d e39b 11bd 793c 9bbc b8f9 14be
00000020: 5dfc 7bbb d292 46bc 3e6f ee3c eec6 083e
00000030: 68ba d1bc 0a91 533d 537a 063e e0df 26bd
00000040: aa03 573b e155 373e c570 70bb f084 48bb
00000050: 90dc 583d 4941 9a3e 758d 863c ec6f 39bc
00000060: 7584 5b3c 64fa d13c fbf4 7b3d f97c a0bc
00000070: d61c 2abb 5b20 88ba decb 493e b6c4 61bc
00000080: f36b bcbc d070 bd3c 2fa9 b8bb 797a 13bc
00000090: 6905 81bc 0efd 073e 82f2 333e f899 803c
000000a0: d1e1 773d dd4d 49bd b495 1fbe c969 1abe
000000b0: fe65 4dbc ddd0 063e 9219 523e df5a 9f3c
000000c0: 5768 033e 7bd3 08bd 55c6 ac3d c408 c3bc
000000d0: 7ada bd3c a453 9ebc 2577 0dbe 882f c53c
000000e0: c1d8 653c 1f14 443d a284 253e 0f12 d9bd
000000f0: d473 febc c94f 8bbd 7503 383e 23a1 85bd
00000100: 1b0c 823b a262 ca3b 320b 423d 5ab4 9a3b
00000110: 2b78 823d 5024 173e 9adc 04be d52c f9ba
00000120: 900b 103e c632 ae3b b114 0fbe 3af5 8e3b
00000130: b347 dcbd 5621 bf3a 8e83 6e3b 817b 0b3d
00000140: 14f7 133b b159 ac3b c896 a93a 002c b3be
00000150: 5b6c 32be 7899 be3b 1851 c83d eac2 cfbb
00000160: 4d2f 163a 30cb 2e3b bebb 06be 12ea 173e
00000170: 24fd cdbb 5178 433b e906 b73e 6d59 03be
00000180: 8cc8 f7bd c4a7 d4bd 61a5 683b 33ec fbbd
00000190: dd16 f13d 80a0 a53e dd70 4439 eac2 813e
000001a0: 2599 6b3e dcd7 e53a 75fe 92be a87e 95be
000001b0: ff40 84bb 0155 aa3a 1e68 513e fa72 d6bd
000001c0: 3547 113e 8520 3f3b 6571 f0bd 8822 d7ba
000001d0: 1c15 d03a 647c 233b 700f 2237 5098 e73d
000001e0: 6473 19bb 7a6d 10ba ca1f c93e 8ca9 bdbd
000001f0: 1c42 063e 9375 3cba 3749 693d 5a9e 133e
