model_호암동포함.pth (torch, 55175 bytes, 9 tensors)

rnn.weight_ih_l0 f4 [64, 7]
0	0x3fe14750	1.7599888
1	0xbd45439d	-0.048160184
2	0x3b282ef5	0.0025662754
3	0x3e1cf867	0.15329133
4	0xbe00e2e1	-0.12586547
5	0xbea2d71f	-0.3180475
6	0x3e5c3459	0.21504344
7	0x3eb92e6c	0.3616823
8	0x3c845723	0.016154831
9	0xbe26d1af	-0.16290925
10	0xbe20394a	-0.15646854
11	0xbe07228c	-0.13196772
12	0xbde4ef44	-0.11178449
13	0x3d836118	0.064150035
14	0xbef2c2f8	-0.47414374
15	0xbdd2687a	-0.102738336
16	0x3f3429d7	0.7037634
17	0x3ea9dede	0.33177847
18	0x3d4765f8	0.04868123
19	0xbe159847	-0.1460887
20	0x3e2db0a5	0.16961916
21	0x3f6e53e1	0.9309674
22	0xbdf409a7	-0.119159035
23	0x3f302fc5	0.6882289
24	0x3ed7b4c3	0.42130098
25	0x3ea78881	0.32721332
26	0x3f35cdd2	0.7101718
27	0xbcc1835d	-0.02362221
28	0x3f3d408d	0.7392662
29	0x3d55d1cb	0.052202027
30	0xbd8abfc1	-0.067748554
31	0xbe30d114	-0.17267257
32	0x3e91c4d7	0.2847049
33	0x3e7c9ec4	0.2466994
34	0xbe363ff6	-0.17797837
35	0xbf9ce0ad	-1.2256066
36	0xbe23f55b	-0.16011564
37	0x3f86124a	1.0474331
38	0x3dec4a28	0.11537582
39	0x3e26fb67	0.1630684
40	0x3e2b4ad2	0.1672776
41	0xbdaa8e9b	-0.08327981
42	0xbc70db71	-0.014700756
43	0xbcfff852	-0.031246338
44	0xbf060e5a	-0.5236565
45	0xbdbcbf39	-0.0921616
46	0x3ea3baee	0.31978554
47	0xbd9ea159	-0.077456184
48	0x3cf11233	0.029427623
49	0x3f272392	0.6528865
50	0x3d0dbdbb	0.03460477
51	0xbf366453	-0.7124683
52	0xbeef534f	-0.46743247
53	0x3e0be659	0.1366209
54	0x3d107962	0.03527201
55	0xbdb64151	-0.08899177
56	0x3e9d1fe6	0.306884
57	0x3c115e44	0.008872572
58	0xbe14c8d6	-0.14529738
59	0xbecd0227	-0.40040705
60	0xbdb263fa	-0.08710475
61	0x3e1b58a2	0.1517053
62	0x3c83d48e	0.016092565
63	0x3ef2def5	0.47435728
64	0x3cc7095d	0.024296457
65	0xbe42b8ad	-0.1901576
66	0xbe5552ca	-0.20832363
67	0x3cf83858	0.030300304
68	0xbc37c702	-0.011216881
69	0xbe564ad3	-0.2092698
70	0xbe135513	-0.14387922
71	0xbac68865	-0.001514685
72	0xbe720030	-0.23632884
73	0x3e608cee	0.2192876
74	0xbd123cdd	-0.035702575
75	0x3e166303	0.14686207
76	0x3be31029	0.0069294167
77	0xbf77957f	-0.9671249
78	0xbbef9f2d	-0.0073126764
79	0xbe4bb78a	-0.19894233
80	0xbe70edbd	-0.2352819
81	0xbe6b73d6	-0.22993407
82	0xbed84b7f	-0.422451
83	0x3e2ef84c	0.17086905
84	0x3f70516a	0.9387423
85	0xbdaeb770	-0.08531082
86	0xbea5a2cb	-0.32350764
87	0xbe96c0af	-0.2944388
88	0x3c2ffb49	0.010741063
89	0xbdf6c3ed	-0.120490886
90	0xbdda7b9d	-0.106681086
91	0x38b85ecd	8.791462e-05
92	0x3da47252	0.08029617
93	0x3edc6782	0.4304772
94	0x3e3cc3c7	0.18434058
95	0xbed40bb6	-0.41415185
96	0xbc87806d	-0.01654073
97	0x3dee309a	0.11630364
98	0xbd2a55a8	-0.041585594
99	0x3dbd1613	0.09232726
100	0xbec71aed	-0.3888773
101	0xbcdaf912	-0.026730094
102	0xbc7b8550	-0.015351608
103	0xbe9fc682	-0.31206137
104	0x3eb749e2	0.35798556
105	0x3f840ffb	1.0317377
106	0x3e007dc3	0.12547974
107	0xbe837076	-0.25671738
108	0xbe455bba	-0.19273272
109	0x3d095b7e	0.03353452
110	0x3d4ed226	0.050493382
111	0x3d4f12dc	0.050555095
112	0x3fa29215	1.2700831
113	0xbc33a1a8	-0.010963835
114	0xbf07dc86	-0.5307087
115	0xbf19f8d8	-0.6014533
116	0xbdf8154a	-0.121134356
117	0x3e46bf07	0.19408809
118	0xbe2bc7e6	-0.16775474
119	0x3f2cd5bd	0.6751364
120	0xbdebf578	-0.11521429
121	0xbf5d3945	-0.8641551
122	0xbe1c0d91	-0.1523955
123	0x3df7815f	0.120852225
124	0xbe18fa7f	-0.14939307
125	0x3afeaf42	0.0019430893
126	0x3d67ca91	0.056589667
127	0xbbbb2e36	-0.005712296
128	0xbe919c12	-0.28439385
129	0x3defde6f	0.11712348
130	0x3e6c24f7	0.23060976
131	0xbe66547a	-0.22493163
132	0xbd734f92	-0.059402056
133	0xbf045ec5	-0.51707107
134	0x3de34758	0.11097592
135	0x3d91f4a0	0.07126737
136	0xbea833e8	-0.328521
137	0x3e1790ff	0.14801405
138	0xbe4a6646	-0.19765577
139	0x3e83bab8	0.25728393
140	0xbf26d8fe	-0.65174854
141	0xbd971630	-0.07377279
142	0xbe8ed333	-0.27895507
143	0xbe93bb5f	-0.2885389
144	0xbeccc334	-0.39992678
145	0xbe993822	-0.29925638
146	0xbe66baed	-0.22532244
147	0xbfa0b3e0	-1.2554893
148	0x3e36c626	0.17849025
149	0xbbe989ac	-0.0071270075
150	0x3ecbe094	0.39819777
151	0xbdc1f459	-0.09470434
152	0x3d8998fe	0.06718634
153	0x3e9ed90b	0.31024966
154	0x3f37f923	0.7186453
155	0xbb331460	-0.0027325377
156	0xbf1a7d54	-0.60347486
157	0xbed84e9d	-0.42247477
158	0xbc0fc75f	-0.008775561
159	0x3eb6f58f	0.3573422
160	0xbec67f59	-0.38769034
161	0x3f88eb20	1.0696754
162	0xbda80125	-0.08203343
163	0xbf2c907a	-0.67407954
164	0xbe977274	-0.29579508
165	0x3d11fa79	0.03563926
166	0xbd7a3fcb	-0.061095994
167	0xbc891ea1	-0.016738238
168	0xbea0c39a	-0.31399232
169	0x3c887e4b	0.016661784
170	0x3e89754f	0.26847312
171	0x3e9f2620	0.31083775
172	0xbe33e8ff	-0.1756935
173	0x3deaaa03	0.114582084
174	0x3ccf2d41	0.025290133
175	0x3ff9535e	1.9478567
176	0xbc701d97	-0.014655492
177	0x3ec9618e	0.3933224
178	0x3e951f56	0.2912547
179	0x3dee1ba8	0.11626369
180	0x3e36b218	0.17841375
181	0x3e8ca941	0.2747288
182	0x3f87313d	1.0561901
183	0xba81d83c	-0.0009906362
184	0xbf2ea639	-0.68222386
185	0xbed0e07a	-0.40796262
186	0xbd9cfa35	-0.07664911
187	0xbd62b70d	-0.055350352
188	0xbe0e23a3	-0.13880782
189	0xbe6de582	-0.23232082
190	0x3ab53e0b	0.0013827694
191	0x3ce1e66f	0.0275757
192	0x3e923cca	0.28562003
193	0x3d3be15c	0.045869216
194	0xbda396e1	-0.07987762
195	0x3b7c2808	0.003847601
196	0x3ea95ef2	0.3308025
197	0xbb9d7cb7	-0.004806127
198	0x3ed9b738	0.42522597
199	0xbe677622	-0.22603658
200	0xbe4acec6	-0.1980544
201	0x3d11acdf	0.035565253
202	0xbd5a3cea	-0.05328075
203	0x3e45fd3a	0.1933488
204	0xbe74e417	-0.23915134
205	0x3d741191	0.059587065
206	0x3eb40513	0.3516012
207	0x3eb6db31	0.35714105
208	0x3eabb624	0.335374
209	0xbda2d82b	-0.07951387
210	0xbd5fae38	-0.054609507
211	0xbcbf9575	-0.023386696
212	0xbcea45f7	-0.028597815
213	0x3e4c47af	0.1994922
214	0x3d274d3d	0.040845145
215	0x3dea5569	0.11442072
216	0xbe2ff5a8	-0.17183554
217	0x3f1a0d8b	0.60176915
218	0xbd647975	-0.055779893
219	0x3e3caee5	0.18426092
220	0x3e9c227a	0.30495054
221	0x3e45361c	0.19258922
222	0x3efe7008	0.49694848
223	0x3e07bad7	0.13254867
224	0xbfb15ed0	-1.385706
225	0xbdbe9251	-0.093052514
226	0xbe1b99cb	-0.15195386
227	0x3e59b818	0.21261632
228	0xbd7b48d1	-0.06134874
229	0x3e7f5294	0.24933845
230	0xbce57796	-0.028011125
231	0x3e1027b6	0.14077649
232	0xbd32cd58	-0.043652862
233	0x3e2257a4	0.15853745
234	0xbb6b4140	-0.0035897046
235	0x3ca2c440	0.01986897
236	0x3dc7cc4d	0.09755764
237	0xbe2710fc	-0.16315073
238	0xbeb04f49	-0.3443549
239	0x3d1c9046	0.038223527
240	0x3e062ca6	0.1310297
241	0x3e566efb	0.20940773
242	0xbe255dde	-0.16149089
243	0xbe115554	-0.14192706
244	0x3ea2a6d7	0.31767914
245	0xbe32bcee	-0.17454883
246	0xbdcf4661	-0.101208456
247	0x3f0dd0ae	0.55396545
248	0xbb3b40a5	-0.0028572467
249	0x3e1d1009	0.15338148
250	0xbe19bdad	-0.15013762
251	0x3d6cc718	0.057807058
252	0xbf9f708c	-1.2456222
253	0xbcefaf9d	-0.029258544
254	0x3f1afdc0	0.6054344
255	0x3ef45aec	0.47725618

rnn.weight_hh_l0 f4 [64, 64]
0	0x3d112a5e	0.035440795
1	0xbe1b9b83	-0.15196042
2	0xbd1a24e1	-0.037632827
3	0x3ddee817	0.108841114
4	0x3da7cd6a	0.081934765
5	0xbdc303c6	-0.09522204
6	0x3e77ccf0	0.24199271
7	0x3eb70cd6	0.3575198
8	0xbddf206f	-0.10894858
9	0xbd7a89bd	-0.061166514
10	0x3d2423ac	0.04007308
11	0xbdd40852	-0.103531495
12	0x3e16c482	0.147234
13	0xbdc9819f	-0.098391764
14	0xbddfa2c9	-0.10919721
15	0x3dd9e197	0.10638731
16	0x3e95a6f4	0.29228938
17	0x3d9821f9	0.07428355
18	0x3d102863	0.035194766
19	0xbd76c8cd	-0.060250092
20	0x3cdf2642	0.027239922
21	0xbee2873a	-0.44243795
22	0x3e5415c9	0.20711435
23	0x3e626b4e	0.22111246
24	0xbc523567	-0.012830115
25	0x3d94ac75	0.07259456
26	0x3e7c8f4a	0.24664035
27	0x3d883213	0.06650176
28	0x3d9ba7b0	0.07600343
29	0xbb916647	-0.0044372412
30	0x3c8f56cc	0.017497443
31	0xbd8be623	-0.068310045
32	0xbccee3ed	-0.025255168
33	0x3d167b50	0.036738694
34	0xbe4a1b3f	-0.19736956
35	0xbd8c288d	-0.06843672
36	0xbd61f301	-0.055163387
37	0xbc8761b9	-0.01652609
38	0x3da06803	0.07832339
39	0x3dd1c427	0.10242491
40	0xbd49a19e	-0.049226396
41	0x3e9b58cb	0.3034118
42	0x3e0e80e5	0.13916357
43	0x3d12f3a7	0.035876896
44	0x3d169dc8	0.036771566
45	0x3db52751	0.0884539
46	0xbdfce4f7	-0.12348359
47	0x3dbf8cdb	0.09353038
48	0xbca3f194	-0.020012654
49	0xbe51a7ba	-0.20474139
50	0xbdb1d817	-0.08683794
51	0x3d440c98	0.047863573
52	0x3de4865e	0.11158441
53	0xbde8329a	-0.113377765
54	0x3d760eba	0.060072638
55	0x3da16715	0.078809895
56	0x3e001174	0.12506658
57	0xbd419803	-0.04726411
58	0xbe1f8e3b	-0.155816
59	0x3b3bd242	0.002865926
60	0xbe1029c4	-0.14078432
61	0x3ddcdaf8	0.107839525
62	0xbe5512cb	-0.2080795
63	0xbae0cbd4	-0.0017150589
64	0x3cae4665	0.021273801
65	0xbe2b3940	-0.16721058
66	0xbe315a25	-0.17319544
67	0x3e29f821	0.1659856
68	0x3d198cc1	0.03748775
69	0x3db9d153	0.090731286
70	0xbc8ea7ff	-0.017414091
71	0xbcc522e2	-0.024064485
72	0x3e4c29ff	0.19937895
73	0xbcaee480	-0.021349192
74	0x3db5506e	0.08853231
75	0xbdefb7aa	-0.11704953
76	0xbab9cc4d	-0.0014175266
77	0xbe1db2c8	-0.15400231
78	0xbe78e7ff	-0.2430725
79	0xbe0ca5ae	-0.13735077
80	0x3d24a5b6	0.040197097
81	0xbe5eb6d2	-0.21749428
82	0x3e04ace5	0.12956579
83	0x3e8c5396	0.2740752
84	0xbd07416e	-0.033021383
85	0xbe92c07b	-0.28662476
86	0x3dce158b	0.10062703
87	0xbdcb665c	-0.09931633
88	0xbd818d70	-0.06325805
89	0x3d23a7b8	0.03995487
90	0xbe09d91e	-0.1346173
91	0xbce7e879	-0.028309094
92	0x3d7b2e3c	0.06132339
93	0xbce44f3f	-0.027869819
94	0x3dffa1d7	0.124820404
95	0x3d87b0ed	0.06625543
96	0x3bfae127	0.007656235
97	0xbe689685	-0.22713669
98	0xbe8b88cf	-0.27252814
99	0xbca2c484	-0.019869097
100	0x3da4b06f	0.080414645
101	0x3e1f477c	0.15554613
102	0x3e07f236	0.1327599
103	0xbde7ee25	-0.11324719
104	0xbe9d99c2	-0.3078137
105	0x3e32c746	0.1745883
106	0xbe01cdea	-0.12676206
107	0xbd5645a1	-0.052312497
108	0x3d139435	0.036030013
109	0xbb9d275d	-0.0047959522
110	0x3c75d5ba	0.01500457
111	0x3d16592f	0.036706146
112	0x3e0be789	0.13662542
113	0x3cb98a03	0.022648817
114	0xbdc7db32	-0.09758605
115	0x399ec242	0.00030280842
116	0xbe101c8b	-0.14073388
117	0xbe2212a9	-0.15827431
118	0xbdf0d699	-0.11759681
119	0x3dffbb26	0.124868676
120	0x3e53203c	0.20617765
121	0xbd1d3476	-0.03838011
122	0xbd5e505d	-0.05427586
123	0xbe218f04	-0.15777212
124	0xbe550d4d	-0.20805855
125	0x3e0c493e	0.13699815
126	0x3dd7db59	0.10539884
127	0xbde40fdb	-0.11135837
128	0x3cf813f4	0.030282952
129	0xbe2c0b7a	-0.16801253
130	0xbea526cd	-0.32256165
131	0x3cfc605b	0.030807665
132	0x3e1b8b43	0.15189843
133	0xbc664408	-0.014054306
134	0x3e02e509	0.12782682
135	0x3ecbe7f2	0.39825398
136	0xbdad5b18	-0.084646404
137	0x3c68088f	0.014162197
138	0x3de32a6b	0.11092075
139	0xbe05122d	-0.12995215
140	0x3da75d4e	0.08172093
141	0xbd6c053b	-0.057622176
142	0xbd8ac255	-0.06775347
143	0x3e327ca7	0.17430364
144	0x3e896aa8	0.26839185
145	0x3db5a9b4	0.08870259
146	0xbc80147b	-0.015634766
147	0x3c46eafc	0.012140986
148	0x3cade32d	0.02122649
149	0xbe87642e	-0.2644362
150	0x3e270b2b	0.16312854
151	0x3d0e3e63	0.034727465
152	0x3c6f254a	0.014596293
153	0xbe1e45c6	-0.15456304
154	0x3e46692c	0.19376057
155	0xbd3a4a69	-0.04548112
156	0xbd7e204b	-0.062042516
157	0x3cd4e700	0.025989056
158	0x3e025cbb	0.12730686
159	0xb9791e20	-0.00023757713
160	0xbe8be20f	-0.27320907
161	0x3e226da4	0.15862137
162	0x3b9c1774	0.004763538
163	0xbd5e1df9	-0.054227803
164	0xbdc49abb	-0.09599825
165	0xbce220a0	-0.027603447
166	0x3dcce2b2	0.10004176
167	0xbc765297	-0.015034339
168	0xbcf4542d	-0.029825294
169	0x3e061269	0.1309296
170	0xbd0cb1bd	-0.034349192
171	0x3c9c15b8	0.019053325
172	0x3e627911	0.22116496
173	0x3dafd362	0.0858524
174	0xbd6f9e9b	-0.058500867
175	0x3e245479	0.16047849
176	0x3cccc264	0.024995036
177	0xbca4ceb0	-0.020118088
178	0xbd8b3959	-0.067980476
179	0x3c838324	0.016053744
180	0x3d70b45e	0.05876576
181	0xbe0ca034	-0.13732988
182	0x3e0868f7	0.13321291
183	0x3d2def18	0.042464346
184	0x3bc42abc	0.0059865396
185	0x3d8dd4d5	0.0692536
186	0x3e9d6cae	0.3074698
187	0x3e4fd720	0.20296907
188	0xbdf03cde	-0.117303595
189	0x3c43d15e	0.0119517725
190	0xbe1f8875	-0.15579398
191	0xbe196a1e	-0.14981887
192	0xbdcb1135	-0.09915391
193	0xbe018a69	-0.12650456
194	0x3dc5cd86	0.09658341
195	0xbdba87b0	-0.091079116
196	0xbdffe98a	-0.12495716
197	0x3e32f0fd	0.17474742
198	0xbdb939d7	-0.09044235
199	0xbea3f3f8	-0.3202207
200	0x3db928e6	0.09041004
201	0xbdc47155	-0.09591929
202	0x3da2bf51	0.07946647
203	0x3e77d512	0.24202374
204	0xbe3acc61	-0.18242027
205	0x3e2240ed	0.1584508
206	0x3dc0cc26	0.09413938
207	0xbe18ba0c	-0.14914721
208	0xbe760d24	-0.2402845
209	0xbe7f5a72	-0.24936846
210	0x3c184dab	0.009295861
211	0x3e0d0301	0.13770677
212	0x3dea802b	0.11450227
213	0x3e71c21b	0.23609202
214	0xbd60ac9c	-0.054852113
215	0xbe1a2024	-0.15051323
216	0xbccfb055	-0.025352636
217	0xbe43c36d	-0.19117518
218	0xbe4db13b	-0.2008714
219	0x3da65d9c	0.08123323
220	0xbcc986f3	-0.024600482
221	0xbe1bff91	-0.1523421
222	0xbdeba4b2	-0.115060225
223	0xbe0a7ff8	-0.13525379
224	0x3e6527f9	0.2237853
225	0x3c202bdc	0.009776082
226	0x3d7f78a6	0.06237092
227	0x3df9cabe	0.12196873
228	0x3dfd7e0d	0.12377558
229	0x3cd53414	0.02602581
230	0xbe114c1f	-0.14189194
231	0xbbc59032	-0.0060291523
232	0xbe2150e7	-0.15753518
233	0xbe83c36a	-0.25735027
234	0xbe05175c	-0.12997192
235	0x3ca70fce	0.020393278
236	0xbcb7e51a	-0.022448111
237	0xbd885e1d	-0.06658576
238	0x3e5e190f	0.21689247
239	0xbe1c8279	-0.15284146
240	0xbd4634e0	-0.04839027
241	0x3d74ed96	0.059796892
242	0x3c22a23b	0.009926374
243	0x3e3d1859	0.18466319
244	0xbe866ee3	-0.26256475
245	0x3dde6b62	0.108603254
246	0xbe50daf9	-0.20396031
247	0x3e18f78e	0.14938185
248	0xbe152647	-0.14565383
249	0x3db3ca7c	0.08778855
250	0x3c1da53b	0.009621914
251	0x3d826497	0.06366842
252	0x3e11112f	0.14166711
253	0x3d3c4930	0.045968235
254	0x3e873324	0.26406205
255	0x3cbde70a	0.023181457

rnn.bias_ih_l0 f4 [64]
0	0xbd0d3bc4	-0.034480825
1	0xbd7ac5d0	-0.061223805
2	0xbcb47bb4	-0.022031642
3	0xbdbcd543	-0.09220364
4	0x3a26f188	0.00063683884
5	0x3c293ba5	0.010329162
6	0xbd09a477	-0.03360411
7	0x3d3d8ed5	0.046278793
8	0xbd03a67f	-0.032141205
9	0x3d88272b	0.06648096
10	0x3d6f915a	0.058488227
11	0x3e0c4395	0.13697655
12	0xbdc84d0b	-0.0978032
13	0xbdacf82c	-0.084457725
14	0x3c663033	0.0140495775
15	0xbcf70c2e	-0.030157175
16	0xbdc7e2bd	-0.09760044
17	0x3db23ffd	0.08703611
18	0x3d023932	0.031792827
19	0xbc6acf9e	-0.014331726
20	0x3de9d70d	0.11417971
21	0xbb846e84	-0.004041495
22	0x3cd761f2	0.026291821
23	0xbd05e087	-0.03268483
24	0xbd08f256	-0.033434235
25	0xbdd35dc2	-0.10320617
26	0xbd9f3e46	-0.077755496
27	0xbbf3d7dc	-0.007441504
28	0xbd9fb9be	-0.077990994
29	0x3d6ac715	0.057318766
30	0x3d36db43	0.044642698
31	0xbd0174e2	-0.03160561
32	0xbc1165e4	-0.00887439
33	0xbbec1f11	-0.007205852
34	0x3d839031	0.06423987
35	0x3c408670	0.011750802
36	0xbd809934	-0.06279221
37	0xbd137b7f	-0.036006447
38	0xbd722d08	-0.059124976
39	0xbd1ace01	-0.037794117
40	0xbd881c13	-0.0664598
41	0xbd77f766	-0.060538672
42	0xbbfdcb4c	-0.007745182
43	0xbd5bf710	-0.053702414
44	0xbd22d2b9	-0.039751742
45	0x3c21ad62	0.009867998
46	0x3d849520	0.06473756
47	0xbd4cad98	-0.04997024
48	0x3a8d8659	0.0010797485
49	0xbd986edc	-0.0744302
50	0xbbb9c01a	-0.0056686522
51	0x3d64c32d	0.055850197
52	0x3d9567d8	0.07295197
53	0x3cf45245	0.029824385
54	0x3b7d3cd6	0.0038640997
55	0x3e1a171c	0.15047878
56	0xbd4589c7	-0.048227098
57	0xbd25b1e3	-0.04045285
58	0x3c8b700d	0.017021203
59	0xbd27887c	-0.040901646
60	0x3cbfb9dd	0.023404056
61	0x3b1c776a	0.0023874887
62	0xbd1c7cb8	-0.03820488
63	0xbd0501c3	-0.032472383

rnn.bias_hh_l0 f4 [64]
0	0xbda09f17	-0.07842844
1	0x3d79b091	0.060959402
2	0x3c883b14	0.016629733
3	0xbe0bc546	-0.13649473
4	0xbd9e5b8c	-0.07732305
5	0x3d54ee6b	0.051985186
6	0x3ceef7e8	0.029170945
7	0xbd73ccdb	-0.059521537
8	0x3d08de1f	0.033414956
9	0xbd7bcc05	-0.061473865
10	0xbd5e807d	-0.054321755
11	0x3cecb8b9	0.028896676
12	0x3dcf3b09	0.10118682
13	0x3da839b9	0.08214135
14	0xbcf33c3f	-0.029691814
15	0xbd8dfb5f	-0.06932711
16	0x3d9e1d8c	0.07720479
17	0xbda42883	-0.080155395
18	0xbce0baa3	-0.027432745
19	0x3c3f2223	0.011665854
20	0x3da85cfb	0.082208596
21	0x3bb62565	0.005558657
22	0xbc49ee16	-0.0123248305
23	0x3c6b9f1b	0.014381195
24	0x3cf46317	0.029832406
25	0xbd3f39e4	-0.04668607
26	0x3da33db8	0.07970756
27	0x3bf0ec40	0.007352382
28	0x3da5c003	0.08093264
29	0xbdd71854	-0.10502687
30	0xbd1de4a7	-0.038548138
31	0xbdc00452	-0.09375824
32	0x3ddfec62	0.10933758
33	0x3c14532a	0.009053031
34	0xbd9c2f9f	-0.076262705
35	0xbc0f7332	-0.008755492
36	0x3d948ff9	0.07254023
37	0x3d1ad8dd	0.037804473
38	0x3d63ef17	0.055647936
39	0x3d218932	0.03943748
40	0x3d6a995a	0.057275154
41	0x3d920b17	0.071310215
42	0x3ba0de1e	0.004909291
43	0x3d5ff843	0.05468012
44	0x3d51bb94	0.05120428
45	0xbd990f62	-0.07473637
46	0xbc5de2d9	-0.013542854
47	0x3c88b9f0	0.016690224
48	0xbaa8c0f9	-0.0012874893
49	0x3d988f30	0.07449186
50	0xba4d5e2c	-0.0007834162
51	0x3be78ede	0.0070665916
52	0xbdd95887	-0.106125884
53	0xbd2909d1	-0.041269127
54	0xbccfd1d5	-0.02536861
55	0xbd5ab4bd	-0.05339502
56	0x3d96c0c7	0.07360988
57	0x3cd17d54	0.025572456
58	0x3e192436	0.1495522
59	0x3d0a61e5	0.033784766
60	0xbd472be5	-0.048625845
61	0xbaf1c262	-0.0018444771
62	0x3d471f3d	0.048613776
63	0x3d11e7f3	0.035621595

rnn.weight_ih_l1 f4 [64, 64]
0	0x381bb06d	3.711919e-05
1	0x3d3c7aa9	0.046015415
2	0xbda51f9a	-0.08062668
3	0x3e02794b	0.12741582
4	0xbc9d771b	-0.019221833
5	0xbcb2600b	-0.021774312
6	0x3ddf1e82	0.10894491
7	0x3e8919db	0.2677754
8	0x3d21b2c6	0.039477132
9	0xbe1d3bc6	-0.15354833
10	0xbd3272ef	-0.04356664
11	0xb987c2e7	-0.0002589442
12	0xbdc37dee	-0.095455036
13	0xbd780ff5	-0.060562093
14	0xbcef91ee	-0.02924439
15	0xbd238541	-0.039922003
16	0xbd6cedee	-0.057844095
17	0x3b1556a3	0.0022787235
18	0xbca6654c	-0.020311974
19	0xbd9b626a	-0.0758713
20	0x3dde2bb3	0.10848179
21	0x3d142e7d	0.036177147
22	0x3d071308	0.032977134
23	0xbb9f052d	-0.004852912
24	0x3d5314f2	0.051533647
25	0x3d8264e5	0.063669
26	0xbdcf0ebe	-0.10110234
27	0xbe3d94f5	-0.18513854
28	0xbc8c0b87	-0.01709534
29	0xbcad3a29	-0.021145897
30	0xbc6e7c61	-0.014556021
31	0xbd747727	-0.059683945
32	0x3e7b9f7b	0.24572556
33	0x3d27407a	0.040832974
34	0x3e4f9132	0.20270231
35	0xbe2764c3	-0.16347031
36	0x3da581d6	0.08081405
37	0xbbe87fa2	-0.007095293
38	0xbdad868e	-0.0847293
39	0x3db18372	0.08667649
40	0x3d1098a3	0.035301816
41	0xbd6e2dc7	-0.058149125
42	0xbd29ab16	-0.041422926
43	0xbda95ea8	-0.08270007
44	0x3acfbea5	0.0015849663
45	0x3c8b9b81	0.017041923
46	0x3e34444f	0.17604183
47	0x3d923e14	0.07140747
48	0x3d8e2c71	0.0694207
49	0x3d9e34e6	0.07724933
50	0xbe10f35b	-0.14155333
51	0xba37f036	-0.000701669
52	0xbe012fcb	-0.12615888
53	0xbc1d4096	-0.009597918
54	0xbc00e6f6	-0.007867565
55	0x3bd9d415	0.0066475966
56	0xbcea0a0e	-0.028569248
57	0x3e0571cc	0.13031691
58	0xbd85371f	-0.06504654
59	0xbd332f7c	-0.043746457
60	0xbdaf47db	-0.08558627
61	0x3d13c129	0.036072884
62	0xbe1de602	-0.15419772
63	0x3e1ad48d	0.15120144
64	0xbd98719a	-0.07443543
65	0xbaeb2a71	-0.0017941726
66	0xbe430448	-0.19044602
67	0x3e1976dc	0.14986748
68	0xbe5981f4	-0.2124098
69	0x3ec799ec	0.3898462
70	0xbe967fb9	-0.2939432
71	0xbf286134	-0.6577332
72	0x3e3a8e9f	0.18218468
73	0xbd27c4b8	-0.04095909
74	0x3e3ef0a7	0.18646489
75	0x3db2fe8f	0.087399594
76	0x3d971a05	0.0737801
77	0x3ee5b012	0.44860893
78	0xbefe777f	-0.49700543
79	0xbe4671b0	-0.19379306
80	0xbe83202e	-0.2561049
81	0x3e1931c1	0.14960386
82	0xbe5ccfe9	-0.21563686
83	0xbe6ebd17	-0.2331432
84	0x3daf2fc5	0.08554033
85	0x3dc491b2	0.09598102
86	0xbd18f75b	-0.03734527
87	0x3de2d7c0	0.11076307
88	0x3ec50dc1	0.38487056
89	0x3e0157fe	0.12631223
90	0xbe5e831e	-0.21729705
91	0xbdd63368	-0.10459024
92	0x3e9bc923	0.30426893
93	0x3db0d3f1	0.086341746
94	0x3e063439	0.13105859
95	0x3e494c1c	0.1965794
96	0x3da4af31	0.080412276
97	0x3c158730	0.0091264695
98	0xbd071081	-0.032974724
99	0xbe67688f	-0.2259848
100	0x3dd161e3	0.102237485
101	0xbeac2a7c	-0.33626163
102	0x3dd4881e	0.10377525
103	0x3e0dc87a	0.13846007
104	0x3e4b53ba	0.19856158
105	0x3d0463f3	0.03232188
106	0xbe00af8d	-0.12566967
107	0x3e3c857e	0.18410298
108	0xb9d0019c	-0.0003967405
109	0xbbf89ab8	-0.0075868033
110	0x3dda6e11	0.10665525
111	0xbd789ac0	-0.060694456
112	0xbe178ad7	-0.14799057
113	0xbd719c6e	-0.058987074
114	0xbdc6d124	-0.09707859
115	0xbda13dd1	-0.07873119
116	0x3d31cb4b	0.043406766
117	0xbe5e3e46	-0.21703443
118	0xbe57e1ba	-0.21082202
119	0x3c816bd8	0.015798494
120	0x3ea21651	0.3165765
121	0xbf078ee6	-0.5295242
122	0xbd3e0e2e	-0.04640024
123	0x3da08857	0.07838505
124	0xbe888d27	-0.2667019
125	0xbdf212f0	-0.11820018
126	0x3ef40450	0.4765954
127	0x3d6e2ef5	0.05815025
128	0xbddfd525	-0.10929326
129	0x3e13c8ba	0.1443204
130	0xbdd476c1	-0.10374213
131	0xbc321480	-0.010869145
132	0xbd66fcec	-0.05639355
133	0xbe00c302	-0.1257439
134	0x3d91627c	0.070988625
135	0xbd42507e	-0.047440045
136	0x3e333151	0.17499281
137	0xbdd05a68	-0.101734936
138	0x3cff0d28	0.031134203
139	0x3de4f6e7	0.111799054
140	0xbc3e0fa3	-0.011600408
141	0x3e95e168	0.29273534
142	0x3cb78732	0.022403333
143	0x3cbd963a	0.023142923
144	0x3d42290d	0.04740243
145	0xbb05ba36	-0.002040518
146	0x3d5cd851	0.053917233
147	0xbd570306	-0.052493118
148	0xbd3aa638	-0.045568675
149	0x3de620c0	0.11236715
150	0xbc6affeb	-0.014343242
151	0xbd0bcba6	-0.03412976
152	0xbdee5089	-0.116364546
153	0x3c76a2a1	0.015053422
154	0x3c177193	0.009243387
155	0xbe7db96a	-0.24777761
156	0xbb3d619b	-0.0028897289
157	0xbde90a29	-0.11378891
158	0x3e0069f0	0.12540412
159	0x3db508d2	0.08839573
160	0x3e0c29d1	0.13687827
161	0xbe055baf	-0.13023256
162	0x3dd29b17	0.10283487
163	0x3c999f05	0.018752584
164	0xbdaab137	-0.08334582
165	0xbdfdfad9	-0.12401361
166	0x3ba5bbed	0.005057803
167	0x3e0dcd00	0.13847733
168	0x3d725271	0.059160654
169	0x3e663673	0.22481708
170	0x3ded4368	0.11585122
171	0x3e1f7bc2	0.15574554
172	0x3ca5dd6f	0.02024719
173	0x3dd42020	0.1035769
174	0x3e01d6fa	0.12679663
175	0xbd88e6b0	-0.06684625
176	0x3c786ee8	0.015163161
177	0xbbf53da3	-0.0074841543
178	0xbbfe19a4	-0.0077545214
179	0xbbfd1a55	-0.0077240863
180	0xbd5f46d2	-0.0545109
181	0xbcc01e65	-0.023451993
182	0x3cfce60c	0.030871414
183	0xbdc2d561	-0.09513355
184	0xbcbe0595	-0.023196021
185	0x3d472eb9	0.048628543
186	0xbdb6701c	-0.08908102
187	0xbdec336f	-0.11533248
188	0x3e299ec7	0.16564475
189	0xbdb56a1f	-0.088581316
190	0xbe77da05	-0.24204262
191	0xbdce8365	-0.10083655
192	0xbe22e280	-0.15906715
193	0xbdb60500	-0.088876724
194	0x3e65ccf2	0.22441462
195	0xbf18d3d1	-0.59698206
196	0xbe61d9c0	-0.22055721
197	0xbd8721c2	-0.06598236
198	0x3e0a1fd3	0.13488702
199	0xbe75cf63	-0.24004893
200	0xbdbf0881	-0.09327794
201	0xbe5c05f8	-0.21486652
202	0x3e7740fb	0.24145882
203	0x3eb85443	0.36001787
204	0xbe0849f4	-0.13309461
205	0xbd354676	-0.04425665
206	0x3e8a60a1	0.27026847
207	0xbdf502a7	-0.119633965
208	0xbe853b72	-0.26021916
209	0xbdd6f10d	-0.104951955
210	0x3d91c3c2	0.07117416
211	0x3e0297d7	0.12753235
212	0x3ddfb46e	0.10923086
213	0x3e95add8	0.29234195
214	0xbe5bf5c2	-0.21480468
215	0xbde06ffe	-0.10958861
216	0x3e375f78	0.17907512
217	0xbe9fd054	-0.3121363
218	0xbeb6ce42	-0.35704237
219	0x3e2774cc	0.16353148
220	0xbd652cc7	-0.055950906
221	0xbe6f8d77	-0.23393808
222	0x3b0c0540	0.0021365434
223	0xbe2a3678	-0.1662234
224	0x3e56c0ff	0.2097206
225	0x3cba8990	0.022770673
226	0x3e811ffd	0.25219718
227	0x3c5b5938	0.013387971
228	0x3e74fe75	0.23925193
229	0xbdb3c4a0	-0.087777376
230	0xbdc00a1b	-0.093769275
231	0x3ca3e193	0.020005023
232	0xbe581979	-0.21103467
233	0xbe9831c1	-0.2972546
234	0xbe0a6035	-0.13513263
235	0x3e176ec7	0.14788352
236	0xbe8f0427	-0.27932855
237	0xbe443759	-0.19161738
238	0x3e43696f	0.19083188
239	0xbe86fa94	-0.2636305
240	0x3e1604b5	0.14650233
241	0x3e0bc72e	0.136502
242	0x3e2cbb8b	0.16868417
243	0x3e018808	0.12649548
244	0xbe9748b0	-0.29547644
245	0x3e3c62fd	0.18397136
246	0xbe3450ef	-0.17608999
247	0x3ea3548d	0.31900445
248	0xbe4e9054	-0.20172244
249	0x3df1c777	0.11805623
250	0x3e4ee807	0.20205699
251	0xbca289ac	-0.019841038
252	0x3d542371	0.051791612
253	0x3c067dbc	0.008208688
254	0xbcd4946f	-0.025949685
255	0x3e4a86c0	0.19777966

rnn.weight_hh_l1 f4 [64, 64]
0	0x3e540196	0.2070373
1	0x3eb9bc90	0.36276674
2	0x3eb04a0f	0.34431502
3	0xbe8b80fc	-0.27246845
4	0x3d92871b	0.071546756
5	0xbc5c911a	-0.013462329
6	0xbea3d356	-0.31997174
7	0x3ef806f0	0.48442793
8	0xbd3c7ff0	-0.04602045
9	0xbf3be115	-0.7339032
10	0x3f6918c5	0.9105342
11	0x3e8a7a61	0.27046493
12	0xbe55e2aa	-0.20887247
13	0x3e938166	0.2880966
14	0x3e3971fb	0.18109886
15	0xbe3ab628	-0.1823355
16	0x3dd89b6c	0.10576519
17	0x3ee97758	0.45598865
18	0x3e5bbcf4	0.21458799
19	0xbea7870b	-0.32720217
20	0xbf4bccab	-0.79609174
21	0xbe518c4b	-0.20463674
22	0xbe892af7	-0.26790592
23	0xbec58084	-0.38574612
24	0xbdf5734a	-0.1198488
25	0xbdfdb9c2	-0.12388946
26	0x3eec4bfc	0.4615172
27	0x3f6af700	0.9178314
28	0x3eba8d7e	0.36436075
29	0xbf12513a	-0.5715519
30	0x3ebbada8	0.36655927
31	0x3e4f417b	0.20239823
32	0xbd8969f2	-0.067096606
33	0xbe94feb4	-0.29100573
34	0x3e0ab70c	0.1354639
35	0xbd431a99	-0.047632787
36	0x3f710108	0.941422
37	0x3dd148a8	0.10218936
38	0xbe71198a	-0.23544899
39	0x3dc63e72	0.09679879
40	0x3dc03b15	0.09386269
41	0xbe22ae2f	-0.15886758
42	0xbda9cd51	-0.08291114
43	0xbde920ff	-0.11383247
44	0x3e6a8d74	0.22905523
45	0xbd1116b6	-0.03542205
46	0xbd847aa7	-0.064687066
47	0x3d3bfb2e	0.04589384
48	0xbe92889a	-0.28619844
49	0xbd63c4d6	-0.05560764
50	0xbe32d159	-0.17462672
51	0x3e7e41ac	0.2482974
52	0x3ec67ea5	0.38768497
53	0x3ee128c4	0.43976414
54	0x3c97ce56	0.018531006
55	0x3ebb7710	0.36614275
56	0xbc77e213	-0.015129584
57	0x3e8f88b5	0.28033987
58	0x3d55aaa6	0.052164696
59	0x3ea0f4c7	0.3143675
60	0xbf32a84f	-0.6978807
61	0x3ea14d16	0.31504124
62	0x3e824738	0.2544496
63	0xbf251e97	-0.644998
64	0xbd18ab97	-0.037273016
65	0x3de83532	0.11338271
66	0x3da6bc22	0.08141352
67	0xbe6de8bc	-0.23233312
68	0xbce50fe9	-0.027961688
69	0xbc5bca82	-0.013414981
70	0xbe24ac8b	-0.16081445
71	0x3e157d46	0.1459857
72	0xbd8aea2c	-0.06782946
73	0xbe70c8b9	-0.2351407
74	0x3efb8791	0.49126866
75	0x3e2c5adc	0.16831535
76	0xbddddda8	-0.10833293
77	0xbcf11ff2	-0.029434178
78	0x3da9ef04	0.08297542
79	0xbe31d6e3	-0.17367129
80	0x3d228246	0.03967502
81	0xbc4757a8	-0.012166895
82	0x3dd04336	0.101690695
83	0x3d967366	0.07346229
84	0xbf0600ab	-0.5234477
85	0xbe3321f0	-0.17493415
86	0xbdd060d6	-0.1017472
87	0x3d780dd0	0.060560048
88	0xbe6622d7	-0.22474228
89	0xbe325778	-0.17416179
90	0x3df33c3e	0.11876725
91	0x3f08a779	0.53380543
92	0x3e1cd183	0.15314297
93	0xbf1e5c4f	-0.618596
94	0x3e8a41c1	0.2700329
95	0xbe52ce0a	-0.2058641
96	0xbe1e423d	-0.15454955
97	0x3dc92f3e	0.09823464
98	0xbcb25f48	-0.02177395
99	0xbe184a69	-0.14872135
100	0x3f175895	0.5911954
101	0x3e3fa245	0.18714245
102	0x3df96482	0.121773735
103	0xbd3dfb01	-0.046381954
104	0xbe660133	-0.22461395
105	0xbe379b63	-0.17930369
106	0x3e39ad0b	0.18132417
107	0x3d5e9ed6	0.054350697
108	0xbc369b35	-0.011145403
109	0x3e481b3c	0.19541639
110	0xbd1db7c6	-0.038505338
111	0x3dba1b89	0.09087283
112	0x3d2ff26a	0.042955793
113	0xbebd7951	-0.3700662
114	0x3d9a7052	0.07540955
115	0x3c7564e7	0.01497767
116	0x3ee8ba5b	0.45454678
117	0x3eac80b5	0.33691946
118	0xbdf53256	-0.119724914
119	0xbdcbec2a	-0.09957154
120	0xbe823aab	-0.25435385
121	0x3cb7176b	0.022350034
122	0x3d6f7a0e	0.05846601
123	0x3cd1fbf9	0.025632845
124	0xbe13895d	-0.14407869
125	0x3e27c081	0.16382028
126	0x3df596c2	0.119916454
127	0xbf03c157	-0.5146689
128	0x3d4c319e	0.049852006
129	0x3ec5aeac	0.38609827
130	0x3d9d666c	0.07685551
131	0xbec06bff	-0.37582394
132	0x3c93876e	0.018008914
133	0xbdd9cdfa	-0.1063499
134	0xbe0d3596	-0.13789973
135	0x3e4dd718	0.20101583
136	0xbe00c98b	-0.12576883
137	0xbec71dbe	-0.3888988
138	0x3f528e83	0.82248706
139	0x3d0d461c	0.03449069
140	0xbde82d7a	-0.11336799
141	0x3ecbb53b	0.39786705
142	0x3e504c12	0.20341519
143	0x3b7704df	0.0037692112
144	0x3e530d66	0.2061058
145	0x3e62fb5c	0.22166198
146	0x39a6b171	0.0003179419
147	0xbe37b5b7	-0.17940412
148	0xbf2ca64a	-0.67441237
149	0xbe490f61	-0.19634773
150	0xbeb6929b	-0.35658726
151	0xbd8ff33f	-0.070288174
152	0xbd99355f	-0.07480883
153	0x3e093015	0.13397248
154	0x3f13f31b	0.57792825
155	0x3f5ec006	0.87011755
156	0x3e9039b7	0.28169033
157	0xbf0285dc	-0.50985503
158	0x3efc2209	0.49244717
159	0x3e08a8ca	0.13345638
160	0xbbd91de0	-0.006625876
161	0xbe661281	-0.22467996
162	0x3d2a1d34	0.041531757
163	0x3e40812d	0.18799277
164	0x3f61aa4e	0.8815049
165	0xbe6d6c20	-0.23185778
166	0xbcb10c24	-0.021612234
167	0x3dfa99b1	0.122363456
168	0x3c061ba4	0.008185301
169	0xbe40d055	-0.18829472
170	0xbe2ebe0c	-0.17064685
171	0x3d263a4c	0.04058294
172	0xbd97eee2	-0.0741861
173	0x3dc7be22	0.09753062
174	0xbd978b07	-0.07399564
175	0xbe3001e0	-0.17188215
176	0xbe91b6a0	-0.28459644
177	0xbe147c0e	-0.14500448
178	0x3e1e9a53	0.15488558
179	0x3e0a6729	0.13515915
180	0x3ecd1855	0.40057626
181	0x3eaeb404	0.34121716
182	0x3e218cf3	0.15776424
183	0x3e82abae	0.25521606
184	0x3c20d88b	0.009817253
185	0x3cd5fd69	0.026121812
186	0xbd659165	-0.056046862
187	0x3e0180ea	0.12646833
188	0xbed087e9	-0.4072869
189	0x3eddf5b3	0.43351516
190	0x3cade452	0.021227036
191	0xbf2303c3	-0.63677615
192	0x3d8951df	0.06705069
193	0x3dd67d7c	0.10473153
194	0x3c19e7c6	0.009393638
195	0xbdb1146c	-0.08646473
196	0xbda74b1e	-0.08168624
197	0xbcd9435f	-0.026521383
198	0xbe544861	-0.20730735
199	0x3e0516bb	0.12996952
200	0x3d72f3d7	0.059314575
201	0xbdb55aea	-0.08855231
202	0x3c29f818	0.010374092
203	0xbd948f7a	-0.072539285
204	0x3d939269	0.0720566
205	0xbc56aed9	-0.01310321
206	0x3dd69d10	0.10479176
207	0x3d532120	0.051545262
208	0x3e703f90	0.23461747
209	0xbd17a98e	-0.037026934
210	0xbd85f578	-0.0654096
211	0x3cc18e79	0.023627507
212	0x3c66ab22	0.014078887
213	0xbe2134db	-0.15742819
214	0xbe76af97	-0.2409042
215	0xbcb8d7f2	-0.022563908
216	0x3d7cf041	0.06175256
217	0x3e259b98	0.16172636
218	0x3de5c994	0.112200886
219	0x3cfe76b9	0.03106247
220	0x3e64a1f7	0.2232741
221	0xbea16eb9	-0.31529787
222	0x3e2c167d	0.16805454
223	0x3e0ce103	0.1375771
224	0xbd0e1737	-0.03469011
225	0xbe7c4a62	-0.2463775
226	0x3e0e2293	0.13880377
227	0xbcf01a54	-0.02930943
228	0x3dd885b6	0.10572378
229	0xbe750bd4	-0.23930293
230	0x3ccffe62	0.025389854
231	0x3d3f9d28	0.046780735
232	0xbda628ae	-0.08113228
233	0x3e01fff5	0.12695296
234	0xbc0d6deb	-0.0086321635
235	0xbdfc1f87	-0.12310701
236	0xbd912272	-0.07086648
237	0xbd53b2c6	-0.051684164
238	0xbe5f3ec2	-0.21801284
239	0x3cb57e99	0.022155093
240	0xbbf8f22d	-0.007597229
241	0xbc04aa22	-0.008097203
242	0xbd23b2dc	-0.039965495
243	0x3d491715	0.04909428
244	0x3e2db5d1	0.16963889
245	0x3d0785f1	0.03308672
246	0x3e34a3b5	0.17640574
247	0x3dc677e4	0.09690836
248	0x3ce126bb	0.027484288
249	0x3b3d15a3	0.0028852008
250	0x3c5379a4	0.012907419
251	0xbe0eee35	-0.13958056
252	0xbe1a2043	-0.1505137
253	0x3db8094f	0.089861505
254	0x3ca7f45a	0.020502258
255	0xbdbfb99c	-0.09361574

rnn.bias_ih_l1 f4 [64]
0	0xbda4252b	-0.08014902
1	0xbc4d6501	-0.012536288
2	0x3d82eafd	0.06392477
3	0x3e5f4545	0.21803768
4	0x3cf4e9f2	0.02989671
5	0x3c9e428a	0.019318838
6	0x3e80a6a7	0.25127146
7	0xbd968172	-0.073489085
8	0x3d83f3d7	0.06442993
9	0x3c8e9336	0.01740418
10	0xbf7a8b68	-0.9786897
11	0xbcb3cc22	-0.021947924
12	0x3d29439b	0.04132424
13	0x3dbf14fe	0.09330176
14	0xbded0862	-0.115738645
15	0xbd69662c	-0.056982204
16	0xbe3bac2a	-0.18327394
17	0xbde0632e	-0.10956417
18	0x3c673669	0.0141120935
19	0xbc05608d	-0.008140695
20	0x3edba2fa	0.4289778
21	0x3d046a18	0.03232774
22	0x3e6b0701	0.2295189
23	0xbb9fd92c	-0.004878184
24	0x3c8e84b4	0.017397262
25	0xbd662752	-0.056189843
26	0xbdd7b76a	-0.1053303
27	0xbf6fb0b5	-0.9362901
28	0x3d3dbd48	0.04632309
29	0x3e96de55	0.294665
30	0xbe80d830	-0.25164938
31	0x3d0c9fb7	0.034332003
32	0x3d93d431	0.07218207
33	0x3dc46751	0.095900185
34	0x3d4b7f84	0.049682155
35	0x3d65d4a7	0.056111004
36	0xbe9045e2	-0.28178316
37	0xbd0898a0	-0.03334868
38	0xbca3b4bf	-0.019983647
39	0x3d32dde8	0.043668658
40	0xbd65aa44	-0.05607058
41	0xbd195229	-0.03743187
42	0x3d770c8f	0.06031471
43	0xbc999dc3	-0.018751984
44	0x3c8e5387	0.017373813
45	0xbbce48f1	-0.0062953164
46	0x3eab89d7	0.335036
47	0xbdb8484a	-0.08998163
48	0x3e655384	0.2239514
49	0x3ce84c65	0.02835674
50	0xbd949062	-0.07254101
51	0xbc592f92	-0.013255971
52	0xbe25bb78	-0.16184795
53	0xbe08a9fb	-0.13346092
54	0xbdb39815	-0.08769242
55	0xbcaec597	-0.021334453
56	0xbda6d2d1	-0.08145679
57	0x3ccd7c0b	0.025083562
58	0xbc373cc3	-0.01118392
59	0x3cf0274b	0.029315611
60	0x3d4992e1	0.04921234
61	0xbd19c93e	-0.037545435
62	0x3dacf703	0.08445551
63	0x3e979d6e	0.29612297

rnn.bias_hh_l1 f4 [64]
0	0x3d798a8d	0.060923148
1	0xbd81e2b3	-0.063420676
2	0xbda8762e	-0.08225666
3	0x3e6b1b76	0.22959694
4	0xbcdaefa1	-0.026725592
5	0x3dda8ba9	0.10671169
6	0x3e243789	0.1603681
7	0x3d0f67e4	0.035011187
8	0xbda27adc	-0.0793359
9	0x3a62c012	0.00086498365
10	0xbf81755b	-1.0113939
11	0x3d126d3a	0.035748698
12	0xbd1710e1	-0.03688133
13	0xbdc6c8ea	-0.0970629
14	0xbe941eb6	-0.2892968
15	0x3d521de3	0.051298033
16	0xbe23cfd2	-0.15997246
17	0x3e0146e4	0.12624699
18	0xbc840a70	-0.016118258
19	0x3ad4d87a	0.0016238831
20	0x3ea0f2c0	0.31435204
21	0x3ddab66d	0.10679326
22	0x3e96e237	0.29469463
23	0x3cf2f3ae	0.029657211
24	0xbd0c18cb	-0.034203332
25	0x3d44ddb5	0.048063
26	0x3c06504c	0.008197855
27	0xbf818d16	-1.0121181
28	0xbddf638d	-0.1090766
29	0x3ebac800	0.36480713
30	0xbd981e9d	-0.07427714
31	0xbd69dcd8	-0.05709538
32	0xbd7e51f1	-0.062089864
33	0xbd441506	-0.047871612
34	0xbe1ca99c	-0.15299076
35	0xbd8c3c37	-0.068474226
36	0xbe8ae749	-0.27129582
37	0x3d86f036	0.06588785
38	0xbd3ee331	-0.046603385
39	0xbd357847	-0.04430416
40	0x3da715b3	0.08158436
41	0x3ceb2380	0.028703451
42	0xbd4afc88	-0.04955724
43	0x3b6c5f38	0.0036067497
44	0xbcae3ed3	-0.021270191
45	0x3cedc4da	0.02902453
46	0x3eaaa8be	0.33331865
47	0x3dd58f33	0.10427704
48	0x3d6d5c4f	0.05794936
49	0xbcde8a0b	-0.027165433
50	0x3d9d9b4f	0.076956384
51	0xbd111289	-0.035418067
52	0xbdff0b96	-0.12453382
53	0xbe0f0697	-0.13967358
54	0x3d5279c2	0.05138565
55	0xbc63eab4	-0.013910938
56	0x3da7a6c6	0.081861064
57	0xbc044415	-0.008072873
58	0x3cd6f01d	0.026237542
59	0x3d255713	0.040366244
60	0xba2f253a	-0.00066812674
61	0xbc5c15a7	-0.013432897
62	0xbde2dbfc	-0.11077115
63	0x3e3abfeb	0.18237273

fc.0.weight f4 [1, 128]
0	0xbc051a46	-0.00812394
1	0x3be5fc2d	0.007018587
2	0xbd1dcd92	-0.038526125
3	0xbe63003f	-0.22168063
4	0xbd14ff7a	-0.036376454
5	0xbe34a300	-0.17640305
6	0xbdba58eb	-0.09098991
7	0xbd89d591	-0.06730188
8	0x3c0e0b2c	0.008669656
9	0x3db54d26	0.088526055
10	0x3dea68b1	0.114457496
11	0xbde7373c	-0.11289832
12	0x3d71e495	0.059055883
13	0x3cd22542	0.025652532
14	0x3de13aa4	0.10997513
15	0x3da2ada4	0.079432756
16	0x3e01686c	0.1263749
17	0xbde47f83	-0.111571334
18	0xbd9803a4	-0.074225694
19	0x3c823ca9	0.015898066
20	0xbd244a4d	-0.04010992
21	0x3dceef7d	0.101042725
22	0x3d6995eb	0.05702774
23	0x3b8da518	0.004322659
24	0x3d1dc6c7	0.038519647
25	0x3c550b1d	0.013003138
26	0x3d72e73e	0.05930256
27	0x3e23ba4b	0.15989034
28	0x3cebdff3	0.02879331
29	0x3b23e38d	0.0025007457
30	0x3e6d72e0	0.23188353
31	0xbbdbd9be	-0.0067093065
32	0xbc239854	-0.009985048
33	0xbcf6f7cc	-0.030147456
34	0x3e0e1634	0.13875657
35	0xbbb9baf1	-0.005668037
36	0x3d4eb6bb	0.050467234
37	0xbd80f75c	-0.0629718
38	0x3d9cd77a	0.076582864
39	0xbcb61d25	-0.022230694
40	0xbc7bac40	-0.015360892
41	0x3d3cd0af	0.046097454
42	0x3b77cb40	0.0037810355
43	0x3c37294a	0.011179278
44	0xbcf7c51a	-0.030245353
45	0xbc50b1b7	-0.012737683
46	0xbdefa816	-0.11701982
47	0x3c94d042	0.018165711
48	0xbe1bcad9	-0.15214099
49	0xbcb2a16d	-0.02180549
50	0x3bfea047	0.0077705714
51	0xbba59e0d	-0.0050542415
52	0xbcb11e7b	-0.02162098
53	0x3e70a48e	0.23500273
54	0x3cc9b2a5	0.024621317
55	0x3b1114dd	0.002213768
56	0xbbe42eaf	-0.006963573
57	0xbdafacf8	-0.08577913
58	0xbc9b167b	-0.018931618
59	0x3c78f468	0.01519499
60	0x3d8020c2	0.06256248
61	0x3d00e0ff	0.031464573
62	0xbda82142	-0.082094684
63	0x3c3b26e2	0.011422845
64	0x3e50ab97	0.20377956
65	0x3e0cbba4	0.13743454
66	0x3e4089e8	0.18802607
67	0xbd6386d8	-0.05554852
68	0xb6b09750	-5.262824e-06
69	0xbe08a1ae	-0.13342926
70	0xbe8b72a7	-0.2723591
71	0x3e316d19	0.17326774
72	0x3e52328c	0.20527095
73	0xba8cb460	-0.0010734908
74	0xbf0ac022	-0.5419942
75	0xbb16f3f0	-0.0023033582
76	0x3b1ad2f2	0.0023624268
77	0x3a05662c	0.0005088772
78	0x3e952c73	0.29135475
79	0x3a91c146	0.0011120222
80	0x3aa30d27	0.0012439833
81	0x39b92f7c	0.00035321328
82	0xb7d1dc9a	-2.5017467e-05
83	0x3b4d3780	0.0031313598
84	0x3e77230c	0.24134463
85	0x3ea49f43	0.32152757
86	0x3ee4e87a	0.44708616
87	0xbe45a9f2	-0.1930311
88	0x3b514b8e	0.0031935903
89	0xb991dfcf	-0.00027823306
90	0x3e39ea59	0.18155803
91	0xbec33c85	-0.3813211
92	0x3e263992	0.16232899
93	0xbe30b5d7	-0.17256866
94	0x3e0e290f	0.1388285
95	0x3e3dee80	0.18548012
96	0x3a41fa46	0.00073996594
97	0xbe25debb	-0.16198246
98	0x3e8d1aa7	0.27559397
99	0x3ac711c8	0.0015187794
100	0x3e1e5a03	0.15464024
101	0xbdce1ec9	-0.100644656
102	0x3b3028ae	0.0026879716
103	0x3e21ff4a	0.15820041
104	0xbaea79dc	-0.00178891
105	0x3af9fe02	0.0019072893
106	0xbe3dee9a	-0.1854805
107	0xb73880c0	-1.0997232e-05
108	0x3aaa8feb	0.0013012862
109	0xbdb4bfe6	-0.08825664
110	0xbeaf243d	-0.34207335
111	0xbb1f81f8	-0.0024338942
112	0xbeb23724	-0.34807694
113	0x3e1dd9ae	0.1541507
114	0xba83282b	-0.0010006478
115	0x3e390150	0.18066907
116	0x3854e0f4	5.0754243e-05
117	0x3e398b0b	0.18119447
118	0x3b78e719	0.0037979542
119	0x3e369d7e	0.17833516
120	0x3aa960a6	0.001292248
121	0xbab8bd2e	-0.0014094466
122	0xb901f104	-0.00012392184
123	0xbe06184f	-0.1309521
124	0xbdd973f7	-0.10617822
125	0x3e20d5ee	0.15706608
126	0xbaf78b78	-0.001888617
127	0xbe252e9f	-0.16131066
